name: "resnet_cifar10_183"
layer {
  name: "data"
  type: "Data"
  top: "data"
  top: "label"
  include {
    phase: TRAIN
  }
  transform_param {
    mirror: true
    crop_size: 32
    mean_file: "all_pad.mean.binaryproto"
  }
  data_param {
    source: "train.lmdb"
    batch_size: 256
    backend: LMDB
  }
}
layer {
  name: "data"
  type: "Data"
  top: "data"
  top: "label"
  include {
    phase: TEST
  }
  transform_param {
    mirror: false
    crop_size: 32
    mean_file: "all_no_pad.mean.binaryproto"
  }
  data_param {
    source: "test.lmdb"
    batch_size: 50
    backend: LMDB
  }
}
layer {
  name: "conv_0"
  type: "Convolution"
  bottom: "data"
  top: "conv_0"
  param {
    lr_mult: 1.0
    decay_mult: 1.0
  }
  param {
    lr_mult: 1.0
    decay_mult: 1.0
  }
  convolution_param {
    num_output: 16
    pad: 1
    kernel_size: 3
    stride: 1
    weight_filler {
      type: "gaussian"
      std: 0.27216553688
    }
    bias_filler {
      type: "constant"
      value: 0.0
    }
  }
}
layer {
  name: "norm_0"
  type: "BatchNorm"
  bottom: "conv_0"
  top: "norm_0"
  batch_norm_param {
  }
}
layer {
  name: "relu_0"
  type: "ReLU"
  bottom: "norm_0"
  top: "relu_0"
}
layer {
  name: "conv_1"
  type: "Convolution"
  bottom: "relu_0"
  top: "conv_1"
  param {
    lr_mult: 1.0
    decay_mult: 1.0
  }
  param {
    lr_mult: 1.0
    decay_mult: 1.0
  }
  convolution_param {
    num_output: 16
    pad: 1
    kernel_size: 3
    stride: 1
    weight_filler {
      type: "gaussian"
      std: 0.117851130664
    }
    bias_filler {
      type: "constant"
      value: 0.0
    }
  }
}
layer {
  name: "norm_1"
  type: "BatchNorm"
  bottom: "conv_1"
  top: "norm_1"
  batch_norm_param {
  }
}
layer {
  name: "relu_1"
  type: "ReLU"
  bottom: "norm_1"
  top: "relu_1"
}
layer {
  name: "conv_2"
  type: "Convolution"
  bottom: "relu_1"
  top: "conv_2"
  param {
    lr_mult: 1.0
    decay_mult: 1.0
  }
  param {
    lr_mult: 1.0
    decay_mult: 1.0
  }
  convolution_param {
    num_output: 16
    pad: 1
    kernel_size: 3
    stride: 1
    weight_filler {
      type: "gaussian"
      std: 0.117851130664
    }
    bias_filler {
      type: "constant"
      value: 0.0
    }
  }
}
layer {
  name: "norm_2"
  type: "BatchNorm"
  bottom: "conv_2"
  top: "norm_2"
  batch_norm_param {
  }
}
layer {
  name: "elem_2"
  type: "Eltwise"
  bottom: "norm_2"
  bottom: "relu_0"
  top: "elem_2"
  eltwise_param {
    operation: SUM
  }
}
layer {
  name: "relu_2"
  type: "ReLU"
  bottom: "elem_2"
  top: "relu_2"
}
layer {
  name: "conv_3"
  type: "Convolution"
  bottom: "relu_2"
  top: "conv_3"
  param {
    lr_mult: 1.0
    decay_mult: 1.0
  }
  param {
    lr_mult: 1.0
    decay_mult: 1.0
  }
  convolution_param {
    num_output: 16
    pad: 1
    kernel_size: 3
    stride: 1
    weight_filler {
      type: "gaussian"
      std: 0.117851130664
    }
    bias_filler {
      type: "constant"
      value: 0.0
    }
  }
}
layer {
  name: "norm_3"
  type: "BatchNorm"
  bottom: "conv_3"
  top: "norm_3"
  batch_norm_param {
  }
}
layer {
  name: "relu_3"
  type: "ReLU"
  bottom: "norm_3"
  top: "relu_3"
}
layer {
  name: "conv_4"
  type: "Convolution"
  bottom: "relu_3"
  top: "conv_4"
  param {
    lr_mult: 1.0
    decay_mult: 1.0
  }
  param {
    lr_mult: 1.0
    decay_mult: 1.0
  }
  convolution_param {
    num_output: 16
    pad: 1
    kernel_size: 3
    stride: 1
    weight_filler {
      type: "gaussian"
      std: 0.117851130664
    }
    bias_filler {
      type: "constant"
      value: 0.0
    }
  }
}
layer {
  name: "norm_4"
  type: "BatchNorm"
  bottom: "conv_4"
  top: "norm_4"
  batch_norm_param {
  }
}
layer {
  name: "elem_4"
  type: "Eltwise"
  bottom: "norm_4"
  bottom: "relu_2"
  top: "elem_4"
  eltwise_param {
    operation: SUM
  }
}
layer {
  name: "relu_4"
  type: "ReLU"
  bottom: "elem_4"
  top: "relu_4"
}
layer {
  name: "conv_5"
  type: "Convolution"
  bottom: "relu_4"
  top: "conv_5"
  param {
    lr_mult: 1.0
    decay_mult: 1.0
  }
  param {
    lr_mult: 1.0
    decay_mult: 1.0
  }
  convolution_param {
    num_output: 16
    pad: 1
    kernel_size: 3
    stride: 1
    weight_filler {
      type: "gaussian"
      std: 0.117851130664
    }
    bias_filler {
      type: "constant"
      value: 0.0
    }
  }
}
layer {
  name: "norm_5"
  type: "BatchNorm"
  bottom: "conv_5"
  top: "norm_5"
  batch_norm_param {
  }
}
layer {
  name: "relu_5"
  type: "ReLU"
  bottom: "norm_5"
  top: "relu_5"
}
layer {
  name: "conv_6"
  type: "Convolution"
  bottom: "relu_5"
  top: "conv_6"
  param {
    lr_mult: 1.0
    decay_mult: 1.0
  }
  param {
    lr_mult: 1.0
    decay_mult: 1.0
  }
  convolution_param {
    num_output: 16
    pad: 1
    kernel_size: 3
    stride: 1
    weight_filler {
      type: "gaussian"
      std: 0.117851130664
    }
    bias_filler {
      type: "constant"
      value: 0.0
    }
  }
}
layer {
  name: "norm_6"
  type: "BatchNorm"
  bottom: "conv_6"
  top: "norm_6"
  batch_norm_param {
  }
}
layer {
  name: "elem_6"
  type: "Eltwise"
  bottom: "norm_6"
  bottom: "relu_4"
  top: "elem_6"
  eltwise_param {
    operation: SUM
  }
}
layer {
  name: "relu_6"
  type: "ReLU"
  bottom: "elem_6"
  top: "relu_6"
}
layer {
  name: "conv_7"
  type: "Convolution"
  bottom: "relu_6"
  top: "conv_7"
  param {
    lr_mult: 1.0
    decay_mult: 1.0
  }
  param {
    lr_mult: 1.0
    decay_mult: 1.0
  }
  convolution_param {
    num_output: 32
    pad: 1
    kernel_size: 3
    stride: 2
    weight_filler {
      type: "gaussian"
      std: 0.117851130664
    }
    bias_filler {
      type: "constant"
      value: 0.0
    }
  }
}
layer {
  name: "norm_7"
  type: "BatchNorm"
  bottom: "conv_7"
  top: "norm_7"
  batch_norm_param {
  }
}
layer {
  name: "relu_7"
  type: "ReLU"
  bottom: "norm_7"
  top: "relu_7"
}
layer {
  name: "conv_8"
  type: "Convolution"
  bottom: "relu_7"
  top: "conv_8"
  param {
    lr_mult: 1.0
    decay_mult: 1.0
  }
  param {
    lr_mult: 1.0
    decay_mult: 1.0
  }
  convolution_param {
    num_output: 32
    pad: 1
    kernel_size: 3
    stride: 1
    weight_filler {
      type: "gaussian"
      std: 0.0833333358169
    }
    bias_filler {
      type: "constant"
      value: 0.0
    }
  }
}
layer {
  name: "norm_8"
  type: "BatchNorm"
  bottom: "conv_8"
  top: "norm_8"
  batch_norm_param {
  }
}
layer {
  name: "proj_7"
  type: "Convolution"
  bottom: "relu_6"
  top: "proj_7"
  param {
    lr_mult: 1.0
    decay_mult: 1.0
  }
  param {
    lr_mult: 1.0
    decay_mult: 1.0
  }
  convolution_param {
    num_output: 32
    pad: 0
    kernel_size: 1
    stride: 2
    weight_filler {
      type: "gaussian"
      std: 0.00999999977648
    }
    bias_filler {
      type: "constant"
      value: 0.0
    }
  }
}
layer {
  name: "elem_8"
  type: "Eltwise"
  bottom: "norm_8"
  bottom: "proj_7"
  top: "elem_8"
  eltwise_param {
    operation: SUM
  }
}
layer {
  name: "relu_8"
  type: "ReLU"
  bottom: "elem_8"
  top: "relu_8"
}
layer {
  name: "conv_9"
  type: "Convolution"
  bottom: "relu_8"
  top: "conv_9"
  param {
    lr_mult: 1.0
    decay_mult: 1.0
  }
  param {
    lr_mult: 1.0
    decay_mult: 1.0
  }
  convolution_param {
    num_output: 32
    pad: 1
    kernel_size: 3
    stride: 1
    weight_filler {
      type: "gaussian"
      std: 0.0833333358169
    }
    bias_filler {
      type: "constant"
      value: 0.0
    }
  }
}
layer {
  name: "norm_9"
  type: "BatchNorm"
  bottom: "conv_9"
  top: "norm_9"
  batch_norm_param {
  }
}
layer {
  name: "relu_9"
  type: "ReLU"
  bottom: "norm_9"
  top: "relu_9"
}
layer {
  name: "conv_10"
  type: "Convolution"
  bottom: "relu_9"
  top: "conv_10"
  param {
    lr_mult: 1.0
    decay_mult: 1.0
  }
  param {
    lr_mult: 1.0
    decay_mult: 1.0
  }
  convolution_param {
    num_output: 32
    pad: 1
    kernel_size: 3
    stride: 1
    weight_filler {
      type: "gaussian"
      std: 0.0833333358169
    }
    bias_filler {
      type: "constant"
      value: 0.0
    }
  }
}
layer {
  name: "norm_10"
  type: "BatchNorm"
  bottom: "conv_10"
  top: "norm_10"
  batch_norm_param {
  }
}
layer {
  name: "elem_10"
  type: "Eltwise"
  bottom: "norm_10"
  bottom: "relu_8"
  top: "elem_10"
  eltwise_param {
    operation: SUM
  }
}
layer {
  name: "relu_10"
  type: "ReLU"
  bottom: "elem_10"
  top: "relu_10"
}
layer {
  name: "conv_11"
  type: "Convolution"
  bottom: "relu_10"
  top: "conv_11"
  param {
    lr_mult: 1.0
    decay_mult: 1.0
  }
  param {
    lr_mult: 1.0
    decay_mult: 1.0
  }
  convolution_param {
    num_output: 32
    pad: 1
    kernel_size: 3
    stride: 1
    weight_filler {
      type: "gaussian"
      std: 0.0833333358169
    }
    bias_filler {
      type: "constant"
      value: 0.0
    }
  }
}
layer {
  name: "norm_11"
  type: "BatchNorm"
  bottom: "conv_11"
  top: "norm_11"
  batch_norm_param {
  }
}
layer {
  name: "relu_11"
  type: "ReLU"
  bottom: "norm_11"
  top: "relu_11"
}
layer {
  name: "conv_12"
  type: "Convolution"
  bottom: "relu_11"
  top: "conv_12"
  param {
    lr_mult: 1.0
    decay_mult: 1.0
  }
  param {
    lr_mult: 1.0
    decay_mult: 1.0
  }
  convolution_param {
    num_output: 32
    pad: 1
    kernel_size: 3
    stride: 1
    weight_filler {
      type: "gaussian"
      std: 0.0833333358169
    }
    bias_filler {
      type: "constant"
      value: 0.0
    }
  }
}
layer {
  name: "norm_12"
  type: "BatchNorm"
  bottom: "conv_12"
  top: "norm_12"
  batch_norm_param {
  }
}
layer {
  name: "elem_12"
  type: "Eltwise"
  bottom: "norm_12"
  bottom: "relu_10"
  top: "elem_12"
  eltwise_param {
    operation: SUM
  }
}
layer {
  name: "relu_12"
  type: "ReLU"
  bottom: "elem_12"
  top: "relu_12"
}
layer {
  name: "conv_13"
  type: "Convolution"
  bottom: "relu_12"
  top: "conv_13"
  param {
    lr_mult: 1.0
    decay_mult: 1.0
  }
  param {
    lr_mult: 1.0
    decay_mult: 1.0
  }
  convolution_param {
    num_output: 64
    pad: 1
    kernel_size: 3
    stride: 2
    weight_filler {
      type: "gaussian"
      std: 0.0833333358169
    }
    bias_filler {
      type: "constant"
      value: 0.0
    }
  }
}
layer {
  name: "norm_13"
  type: "BatchNorm"
  bottom: "conv_13"
  top: "norm_13"
  batch_norm_param {
  }
}
layer {
  name: "relu_13"
  type: "ReLU"
  bottom: "norm_13"
  top: "relu_13"
}
layer {
  name: "conv_14"
  type: "Convolution"
  bottom: "relu_13"
  top: "conv_14"
  param {
    lr_mult: 1.0
    decay_mult: 1.0
  }
  param {
    lr_mult: 1.0
    decay_mult: 1.0
  }
  convolution_param {
    num_output: 64
    pad: 1
    kernel_size: 3
    stride: 1
    weight_filler {
      type: "gaussian"
      std: 0.0589255653322
    }
    bias_filler {
      type: "constant"
      value: 0.0
    }
  }
}
layer {
  name: "norm_14"
  type: "BatchNorm"
  bottom: "conv_14"
  top: "norm_14"
  batch_norm_param {
  }
}
layer {
  name: "proj_13"
  type: "Convolution"
  bottom: "relu_12"
  top: "proj_13"
  param {
    lr_mult: 1.0
    decay_mult: 1.0
  }
  param {
    lr_mult: 1.0
    decay_mult: 1.0
  }
  convolution_param {
    num_output: 64
    pad: 0
    kernel_size: 1
    stride: 2
    weight_filler {
      type: "gaussian"
      std: 0.00999999977648
    }
    bias_filler {
      type: "constant"
      value: 0.0
    }
  }
}
layer {
  name: "elem_14"
  type: "Eltwise"
  bottom: "norm_14"
  bottom: "proj_13"
  top: "elem_14"
  eltwise_param {
    operation: SUM
  }
}
layer {
  name: "relu_14"
  type: "ReLU"
  bottom: "elem_14"
  top: "relu_14"
}
layer {
  name: "conv_15"
  type: "Convolution"
  bottom: "relu_14"
  top: "conv_15"
  param {
    lr_mult: 1.0
    decay_mult: 1.0
  }
  param {
    lr_mult: 1.0
    decay_mult: 1.0
  }
  convolution_param {
    num_output: 64
    pad: 1
    kernel_size: 3
    stride: 1
    weight_filler {
      type: "gaussian"
      std: 0.0589255653322
    }
    bias_filler {
      type: "constant"
      value: 0.0
    }
  }
}
layer {
  name: "norm_15"
  type: "BatchNorm"
  bottom: "conv_15"
  top: "norm_15"
  batch_norm_param {
  }
}
layer {
  name: "relu_15"
  type: "ReLU"
  bottom: "norm_15"
  top: "relu_15"
}
layer {
  name: "conv_16"
  type: "Convolution"
  bottom: "relu_15"
  top: "conv_16"
  param {
    lr_mult: 1.0
    decay_mult: 1.0
  }
  param {
    lr_mult: 1.0
    decay_mult: 1.0
  }
  convolution_param {
    num_output: 64
    pad: 1
    kernel_size: 3
    stride: 1
    weight_filler {
      type: "gaussian"
      std: 0.0589255653322
    }
    bias_filler {
      type: "constant"
      value: 0.0
    }
  }
}
layer {
  name: "norm_16"
  type: "BatchNorm"
  bottom: "conv_16"
  top: "norm_16"
  batch_norm_param {
  }
}
layer {
  name: "elem_16"
  type: "Eltwise"
  bottom: "norm_16"
  bottom: "relu_14"
  top: "elem_16"
  eltwise_param {
    operation: SUM
  }
}
layer {
  name: "relu_16"
  type: "ReLU"
  bottom: "elem_16"
  top: "relu_16"
}
layer {
  name: "conv_17"
  type: "Convolution"
  bottom: "relu_16"
  top: "conv_17"
  param {
    lr_mult: 1.0
    decay_mult: 1.0
  }
  param {
    lr_mult: 1.0
    decay_mult: 1.0
  }
  convolution_param {
    num_output: 64
    pad: 1
    kernel_size: 3
    stride: 1
    weight_filler {
      type: "gaussian"
      std: 0.0589255653322
    }
    bias_filler {
      type: "constant"
      value: 0.0
    }
  }
}
layer {
  name: "norm_17"
  type: "BatchNorm"
  bottom: "conv_17"
  top: "norm_17"
  batch_norm_param {
  }
}
layer {
  name: "relu_17"
  type: "ReLU"
  bottom: "norm_17"
  top: "relu_17"
}
layer {
  name: "conv_18"
  type: "Convolution"
  bottom: "relu_17"
  top: "conv_18"
  param {
    lr_mult: 1.0
    decay_mult: 1.0
  }
  param {
    lr_mult: 1.0
    decay_mult: 1.0
  }
  convolution_param {
    num_output: 64
    pad: 1
    kernel_size: 3
    stride: 1
    weight_filler {
      type: "gaussian"
      std: 0.0589255653322
    }
    bias_filler {
      type: "constant"
      value: 0.0
    }
  }
}
layer {
  name: "norm_18"
  type: "BatchNorm"
  bottom: "conv_18"
  top: "norm_18"
  batch_norm_param {
  }
}
layer {
  name: "elem_18"
  type: "Eltwise"
  bottom: "norm_18"
  bottom: "relu_16"
  top: "elem_18"
  eltwise_param {
    operation: SUM
  }
}
layer {
  name: "relu_18"
  type: "ReLU"
  bottom: "elem_18"
  top: "relu_18"
}
layer {
  name: "conv_19"
  type: "Convolution"
  bottom: "relu_18"
  top: "conv_19"
  param {
    lr_mult: 1.0
    decay_mult: 1.0
  }
  param {
    lr_mult: 1.0
    decay_mult: 1.0
  }
  convolution_param {
    num_output: 128
    pad: 1
    kernel_size: 3
    stride: 2
    weight_filler {
      type: "gaussian"
      std: 0.0589255653322
    }
    bias_filler {
      type: "constant"
      value: 0.0
    }
  }
}
layer {
  name: "norm_19"
  type: "BatchNorm"
  bottom: "conv_19"
  top: "norm_19"
  batch_norm_param {
  }
}
layer {
  name: "relu_19"
  type: "ReLU"
  bottom: "norm_19"
  top: "relu_19"
}
layer {
  name: "conv_20"
  type: "Convolution"
  bottom: "relu_19"
  top: "conv_20"
  param {
    lr_mult: 1.0
    decay_mult: 1.0
  }
  param {
    lr_mult: 1.0
    decay_mult: 1.0
  }
  convolution_param {
    num_output: 128
    pad: 1
    kernel_size: 3
    stride: 1
    weight_filler {
      type: "gaussian"
      std: 0.0416666679084
    }
    bias_filler {
      type: "constant"
      value: 0.0
    }
  }
}
layer {
  name: "norm_20"
  type: "BatchNorm"
  bottom: "conv_20"
  top: "norm_20"
  batch_norm_param {
  }
}
layer {
  name: "elem_20"
  type: "Eltwise"
  bottom: "norm_20"
  bottom: "proj_19"
  top: "elem_20"
  eltwise_param {
    operation: SUM
  }
}
layer {
  name: "relu_20"
  type: "ReLU"
  bottom: "elem_20"
  top: "relu_20"
}
layer {
  name: "conv_21"
  type: "Convolution"
  bottom: "relu_20"
  top: "conv_21"
  param {
    lr_mult: 1.0
    decay_mult: 1.0
  }
  param {
    lr_mult: 1.0
    decay_mult: 1.0
  }
  convolution_param {
    num_output: 128
    pad: 1
    kernel_size: 3
    stride: 1
    weight_filler {
      type: "gaussian"
      std: 0.0416666679084
    }
    bias_filler {
      type: "constant"
      value: 0.0
    }
  }
}
layer {
  name: "norm_21"
  type: "BatchNorm"
  bottom: "conv_21"
  top: "norm_21"
  batch_norm_param {
  }
}
layer {
  name: "relu_21"
  type: "ReLU"
  bottom: "norm_21"
  top: "relu_21"
}
layer {
  name: "conv_22"
  type: "Convolution"
  bottom: "relu_21"
  top: "conv_22"
  param {
    lr_mult: 1.0
    decay_mult: 1.0
  }
  param {
    lr_mult: 1.0
    decay_mult: 1.0
  }
  convolution_param {
    num_output: 128
    pad: 1
    kernel_size: 3
    stride: 1
    weight_filler {
      type: "gaussian"
      std: 0.0416666679084
    }
    bias_filler {
      type: "constant"
      value: 0.0
    }
  }
}
layer {
  name: "norm_22"
  type: "BatchNorm"
  bottom: "conv_22"
  top: "norm_22"
  batch_norm_param {
  }
}
layer {
  name: "elem_22"
  type: "Eltwise"
  bottom: "norm_22"
  bottom: "relu_20"
  top: "elem_22"
  eltwise_param {
    operation: SUM
  }
}
layer {
  name: "relu_22"
  type: "ReLU"
  bottom: "elem_22"
  top: "relu_22"
}
layer {
  name: "conv_23"
  type: "Convolution"
  bottom: "relu_22"
  top: "conv_23"
  param {
    lr_mult: 1.0
    decay_mult: 1.0
  }
  param {
    lr_mult: 1.0
    decay_mult: 1.0
  }
  convolution_param {
    num_output: 128
    pad: 1
    kernel_size: 3
    stride: 1
    weight_filler {
      type: "gaussian"
      std: 0.0416666679084
    }
    bias_filler {
      type: "constant"
      value: 0.0
    }
  }
}
layer {
  name: "norm_23"
  type: "BatchNorm"
  bottom: "conv_23"
  top: "norm_23"
  batch_norm_param {
  }
}
layer {
  name: "relu_23"
  type: "ReLU"
  bottom: "norm_23"
  top: "relu_23"
}
layer {
  name: "conv_24"
  type: "Convolution"
  bottom: "relu_23"
  top: "conv_24"
  param {
    lr_mult: 1.0
    decay_mult: 1.0
  }
  param {
    lr_mult: 1.0
    decay_mult: 1.0
  }
  convolution_param {
    num_output: 128
    pad: 1
    kernel_size: 3
    stride: 1
    weight_filler {
      type: "gaussian"
      std: 0.0416666679084
    }
    bias_filler {
      type: "constant"
      value: 0.0
    }
  }
}
layer {
  name: "norm_24"
  type: "BatchNorm"
  bottom: "conv_24"
  top: "norm_24"
  batch_norm_param {
  }
}
layer {
  name: "elem_24"
  type: "Eltwise"
  bottom: "norm_24"
  bottom: "relu_22"
  top: "elem_24"
  eltwise_param {
    operation: SUM
  }
}
layer {
  name: "relu_24"
  type: "ReLU"
  bottom: "elem_24"
  top: "relu_24"
}
layer {
  name: "conv_25"
  type: "Convolution"
  bottom: "relu_24"
  top: "conv_25"
  param {
    lr_mult: 1.0
    decay_mult: 1.0
  }
  param {
    lr_mult: 1.0
    decay_mult: 1.0
  }
  convolution_param {
    num_output: 256
    pad: 1
    kernel_size: 3
    stride: 2
    weight_filler {
      type: "gaussian"
      std: 0.0416666679084
    }
    bias_filler {
      type: "constant"
      value: 0.0
    }
  }
}
layer {
  name: "norm_25"
  type: "BatchNorm"
  bottom: "conv_25"
  top: "norm_25"
  batch_norm_param {
  }
}
layer {
  name: "relu_25"
  type: "ReLU"
  bottom: "norm_25"
  top: "relu_25"
}
layer {
  name: "conv_26"
  type: "Convolution"
  bottom: "relu_25"
  top: "conv_26"
  param {
    lr_mult: 1.0
    decay_mult: 1.0
  }
  param {
    lr_mult: 1.0
    decay_mult: 1.0
  }
  convolution_param {
    num_output: 256
    pad: 1
    kernel_size: 3
    stride: 1
    weight_filler {
      type: "gaussian"
      std: 0.0294627826661
    }
    bias_filler {
      type: "constant"
      value: 0.0
    }
  }
}
layer {
  name: "norm_26"
  type: "BatchNorm"
  bottom: "conv_26"
  top: "norm_26"
  batch_norm_param {
  }
}
layer {
  name: "elem_26"
  type: "Eltwise"
  bottom: "norm_26"
  bottom: "proj_25"
  top: "elem_26"
  eltwise_param {
    operation: SUM
  }
}
layer {
  name: "relu_26"
  type: "ReLU"
  bottom: "elem_26"
  top: "relu_26"
}
layer {
  name: "conv_27"
  type: "Convolution"
  bottom: "relu_26"
  top: "conv_27"
  param {
    lr_mult: 1.0
    decay_mult: 1.0
  }
  param {
    lr_mult: 1.0
    decay_mult: 1.0
  }
  convolution_param {
    num_output: 256
    pad: 1
    kernel_size: 3
    stride: 1
    weight_filler {
      type: "gaussian"
      std: 0.0294627826661
    }
    bias_filler {
      type: "constant"
      value: 0.0
    }
  }
}
layer {
  name: "norm_27"
  type: "BatchNorm"
  bottom: "conv_27"
  top: "norm_27"
  batch_norm_param {
  }
}
layer {
  name: "relu_27"
  type: "ReLU"
  bottom: "norm_27"
  top: "relu_27"
}
layer {
  name: "conv_28"
  type: "Convolution"
  bottom: "relu_27"
  top: "conv_28"
  param {
    lr_mult: 1.0
    decay_mult: 1.0
  }
  param {
    lr_mult: 1.0
    decay_mult: 1.0
  }
  convolution_param {
    num_output: 256
    pad: 1
    kernel_size: 3
    stride: 1
    weight_filler {
      type: "gaussian"
      std: 0.0294627826661
    }
    bias_filler {
      type: "constant"
      value: 0.0
    }
  }
}
layer {
  name: "norm_28"
  type: "BatchNorm"
  bottom: "conv_28"
  top: "norm_28"
  batch_norm_param {
  }
}
layer {
  name: "elem_28"
  type: "Eltwise"
  bottom: "norm_28"
  bottom: "relu_26"
  top: "elem_28"
  eltwise_param {
    operation: SUM
  }
}
layer {
  name: "relu_28"
  type: "ReLU"
  bottom: "elem_28"
  top: "relu_28"
}
layer {
  name: "conv_29"
  type: "Convolution"
  bottom: "relu_28"
  top: "conv_29"
  param {
    lr_mult: 1.0
    decay_mult: 1.0
  }
  param {
    lr_mult: 1.0
    decay_mult: 1.0
  }
  convolution_param {
    num_output: 256
    pad: 1
    kernel_size: 3
    stride: 1
    weight_filler {
      type: "gaussian"
      std: 0.0294627826661
    }
    bias_filler {
      type: "constant"
      value: 0.0
    }
  }
}
layer {
  name: "norm_29"
  type: "BatchNorm"
  bottom: "conv_29"
  top: "norm_29"
  batch_norm_param {
  }
}
layer {
  name: "relu_29"
  type: "ReLU"
  bottom: "norm_29"
  top: "relu_29"
}
layer {
  name: "conv_30"
  type: "Convolution"
  bottom: "relu_29"
  top: "conv_30"
  param {
    lr_mult: 1.0
    decay_mult: 1.0
  }
  param {
    lr_mult: 1.0
    decay_mult: 1.0
  }
  convolution_param {
    num_output: 256
    pad: 1
    kernel_size: 3
    stride: 1
    weight_filler {
      type: "gaussian"
      std: 0.0294627826661
    }
    bias_filler {
      type: "constant"
      value: 0.0
    }
  }
}
layer {
  name: "norm_30"
  type: "BatchNorm"
  bottom: "conv_30"
  top: "norm_30"
  batch_norm_param {
  }
}
layer {
  name: "elem_30"
  type: "Eltwise"
  bottom: "norm_30"
  bottom: "relu_28"
  top: "elem_30"
  eltwise_param {
    operation: SUM
  }
}
layer {
  name: "relu_30"
  type: "ReLU"
  bottom: "elem_30"
  top: "relu_30"
}
layer {
  name: "pool_31"
  type: "Pooling"
  bottom: "relu_30"
  top: "pool_31"
  pooling_param {
    pool: AVE
    kernel_size: 2
    stride: 2
  }
}
layer {
  name: "fc_31"
  type: "InnerProduct"
  bottom: "pool_31"
  top: "fc_31"
  param {
    lr_mult: 1.0
    decay_mult: 1.0
  }
  param {
    lr_mult: 1.0
    decay_mult: 1.0
  }
  inner_product_param {
    num_output: 10
    weight_filler {
      type: "gaussian"
      std: 0.00999999977648
    }
    bias_filler {
      type: "constant"
      value: 0.0
    }
  }
}
layer {
  name: "loss"
  type: "SoftmaxWithLoss"
  bottom: "fc_31"
  bottom: "label"
  top: "loss"
}
layer {
  name: "accuracy"
  type: "Accuracy"
  bottom: "fc_31"
  bottom: "label"
  top: "accuracy"
  include {
    phase: TEST
  }
}
layer {
  name: "conv_32"
  type: "Convolution"
  bottom: "relu_31"
  top: "conv_32"
  param {
    lr_mult: 1.0
    decay_mult: 1.0
  }
  param {
    lr_mult: 1.0
    decay_mult: 1.0
  }
  convolution_param {
    num_output: 16
    pad: 1
    kernel_size: 3
    stride: 1
    weight_filler {
      type: "gaussian"
      std: 0.0294627826661
    }
    bias_filler {
      type: "constant"
      value: 0.0
    }
  }
}
layer {
  name: "norm_32"
  type: "BatchNorm"
  bottom: "conv_32"
  top: "norm_32"
  batch_norm_param {
  }
}
layer {
  name: "relu_32"
  type: "ReLU"
  bottom: "norm_32"
  top: "relu_32"
}
layer {
  name: "conv_33"
  type: "Convolution"
  bottom: "relu_32"
  top: "conv_33"
  param {
    lr_mult: 1.0
    decay_mult: 1.0
  }
  param {
    lr_mult: 1.0
    decay_mult: 1.0
  }
  convolution_param {
    num_output: 16
    pad: 1
    kernel_size: 3
    stride: 1
    weight_filler {
      type: "gaussian"
      std: 0.117851130664
    }
    bias_filler {
      type: "constant"
      value: 0.0
    }
  }
}
layer {
  name: "norm_33"
  type: "BatchNorm"
  bottom: "conv_33"
  top: "norm_33"
  batch_norm_param {
  }
}
layer {
  name: "elem_33"
  type: "Eltwise"
  bottom: "norm_33"
  bottom: "relu_31"
  top: "elem_33"
  eltwise_param {
    operation: SUM
  }
}
layer {
  name: "relu_33"
  type: "ReLU"
  bottom: "elem_33"
  top: "relu_33"
}
layer {
  name: "conv_34"
  type: "Convolution"
  bottom: "relu_33"
  top: "conv_34"
  param {
    lr_mult: 1.0
    decay_mult: 1.0
  }
  param {
    lr_mult: 1.0
    decay_mult: 1.0
  }
  convolution_param {
    num_output: 16
    pad: 1
    kernel_size: 3
    stride: 1
    weight_filler {
      type: "gaussian"
      std: 0.117851130664
    }
    bias_filler {
      type: "constant"
      value: 0.0
    }
  }
}
layer {
  name: "norm_34"
  type: "BatchNorm"
  bottom: "conv_34"
  top: "norm_34"
  batch_norm_param {
  }
}
layer {
  name: "relu_34"
  type: "ReLU"
  bottom: "norm_34"
  top: "relu_34"
}
layer {
  name: "conv_35"
  type: "Convolution"
  bottom: "relu_34"
  top: "conv_35"
  param {
    lr_mult: 1.0
    decay_mult: 1.0
  }
  param {
    lr_mult: 1.0
    decay_mult: 1.0
  }
  convolution_param {
    num_output: 16
    pad: 1
    kernel_size: 3
    stride: 1
    weight_filler {
      type: "gaussian"
      std: 0.117851130664
    }
    bias_filler {
      type: "constant"
      value: 0.0
    }
  }
}
layer {
  name: "norm_35"
  type: "BatchNorm"
  bottom: "conv_35"
  top: "norm_35"
  batch_norm_param {
  }
}
layer {
  name: "elem_35"
  type: "Eltwise"
  bottom: "norm_35"
  bottom: "relu_33"
  top: "elem_35"
  eltwise_param {
    operation: SUM
  }
}
layer {
  name: "relu_35"
  type: "ReLU"
  bottom: "elem_35"
  top: "relu_35"
}
layer {
  name: "conv_36"
  type: "Convolution"
  bottom: "relu_35"
  top: "conv_36"
  param {
    lr_mult: 1.0
    decay_mult: 1.0
  }
  param {
    lr_mult: 1.0
    decay_mult: 1.0
  }
  convolution_param {
    num_output: 16
    pad: 1
    kernel_size: 3
    stride: 1
    weight_filler {
      type: "gaussian"
      std: 0.117851130664
    }
    bias_filler {
      type: "constant"
      value: 0.0
    }
  }
}
layer {
  name: "norm_36"
  type: "BatchNorm"
  bottom: "conv_36"
  top: "norm_36"
  batch_norm_param {
  }
}
layer {
  name: "relu_36"
  type: "ReLU"
  bottom: "norm_36"
  top: "relu_36"
}
layer {
  name: "conv_37"
  type: "Convolution"
  bottom: "relu_36"
  top: "conv_37"
  param {
    lr_mult: 1.0
    decay_mult: 1.0
  }
  param {
    lr_mult: 1.0
    decay_mult: 1.0
  }
  convolution_param {
    num_output: 16
    pad: 1
    kernel_size: 3
    stride: 2
    weight_filler {
      type: "gaussian"
      std: 0.117851130664
    }
    bias_filler {
      type: "constant"
      value: 0.0
    }
  }
}
layer {
  name: "norm_37"
  type: "BatchNorm"
  bottom: "conv_37"
  top: "norm_37"
  batch_norm_param {
  }
}
layer {
  name: "elem_37"
  type: "Eltwise"
  bottom: "norm_37"
  bottom: "relu_35"
  top: "elem_37"
  eltwise_param {
    operation: SUM
  }
}
layer {
  name: "relu_37"
  type: "ReLU"
  bottom: "elem_37"
  top: "relu_37"
}
layer {
  name: "conv_38"
  type: "Convolution"
  bottom: "relu_37"
  top: "conv_38"
  param {
    lr_mult: 1.0
    decay_mult: 1.0
  }
  param {
    lr_mult: 1.0
    decay_mult: 1.0
  }
  convolution_param {
    num_output: 16
    pad: 1
    kernel_size: 3
    stride: 1
    weight_filler {
      type: "gaussian"
      std: 0.117851130664
    }
    bias_filler {
      type: "constant"
      value: 0.0
    }
  }
}
layer {
  name: "norm_38"
  type: "BatchNorm"
  bottom: "conv_38"
  top: "norm_38"
  batch_norm_param {
  }
}
layer {
  name: "relu_38"
  type: "ReLU"
  bottom: "norm_38"
  top: "relu_38"
}
layer {
  name: "conv_39"
  type: "Convolution"
  bottom: "relu_38"
  top: "conv_39"
  param {
    lr_mult: 1.0
    decay_mult: 1.0
  }
  param {
    lr_mult: 1.0
    decay_mult: 1.0
  }
  convolution_param {
    num_output: 16
    pad: 1
    kernel_size: 3
    stride: 1
    weight_filler {
      type: "gaussian"
      std: 0.117851130664
    }
    bias_filler {
      type: "constant"
      value: 0.0
    }
  }
}
layer {
  name: "norm_39"
  type: "BatchNorm"
  bottom: "conv_39"
  top: "norm_39"
  batch_norm_param {
  }
}
layer {
  name: "elem_39"
  type: "Eltwise"
  bottom: "norm_39"
  bottom: "relu_37"
  top: "elem_39"
  eltwise_param {
    operation: SUM
  }
}
layer {
  name: "relu_39"
  type: "ReLU"
  bottom: "elem_39"
  top: "relu_39"
}
layer {
  name: "conv_40"
  type: "Convolution"
  bottom: "relu_39"
  top: "conv_40"
  param {
    lr_mult: 1.0
    decay_mult: 1.0
  }
  param {
    lr_mult: 1.0
    decay_mult: 1.0
  }
  convolution_param {
    num_output: 16
    pad: 1
    kernel_size: 3
    stride: 1
    weight_filler {
      type: "gaussian"
      std: 0.117851130664
    }
    bias_filler {
      type: "constant"
      value: 0.0
    }
  }
}
layer {
  name: "norm_40"
  type: "BatchNorm"
  bottom: "conv_40"
  top: "norm_40"
  batch_norm_param {
  }
}
layer {
  name: "relu_40"
  type: "ReLU"
  bottom: "norm_40"
  top: "relu_40"
}
layer {
  name: "conv_41"
  type: "Convolution"
  bottom: "relu_40"
  top: "conv_41"
  param {
    lr_mult: 1.0
    decay_mult: 1.0
  }
  param {
    lr_mult: 1.0
    decay_mult: 1.0
  }
  convolution_param {
    num_output: 16
    pad: 1
    kernel_size: 3
    stride: 1
    weight_filler {
      type: "gaussian"
      std: 0.117851130664
    }
    bias_filler {
      type: "constant"
      value: 0.0
    }
  }
}
layer {
  name: "norm_41"
  type: "BatchNorm"
  bottom: "conv_41"
  top: "norm_41"
  batch_norm_param {
  }
}
layer {
  name: "elem_41"
  type: "Eltwise"
  bottom: "norm_41"
  bottom: "relu_39"
  top: "elem_41"
  eltwise_param {
    operation: SUM
  }
}
layer {
  name: "relu_41"
  type: "ReLU"
  bottom: "elem_41"
  top: "relu_41"
}
layer {
  name: "conv_42"
  type: "Convolution"
  bottom: "relu_41"
  top: "conv_42"
  param {
    lr_mult: 1.0
    decay_mult: 1.0
  }
  param {
    lr_mult: 1.0
    decay_mult: 1.0
  }
  convolution_param {
    num_output: 16
    pad: 1
    kernel_size: 3
    stride: 1
    weight_filler {
      type: "gaussian"
      std: 0.117851130664
    }
    bias_filler {
      type: "constant"
      value: 0.0
    }
  }
}
layer {
  name: "norm_42"
  type: "BatchNorm"
  bottom: "conv_42"
  top: "norm_42"
  batch_norm_param {
  }
}
layer {
  name: "relu_42"
  type: "ReLU"
  bottom: "norm_42"
  top: "relu_42"
}
layer {
  name: "conv_43"
  type: "Convolution"
  bottom: "relu_42"
  top: "conv_43"
  param {
    lr_mult: 1.0
    decay_mult: 1.0
  }
  param {
    lr_mult: 1.0
    decay_mult: 1.0
  }
  convolution_param {
    num_output: 16
    pad: 1
    kernel_size: 3
    stride: 1
    weight_filler {
      type: "gaussian"
      std: 0.117851130664
    }
    bias_filler {
      type: "constant"
      value: 0.0
    }
  }
}
layer {
  name: "norm_43"
  type: "BatchNorm"
  bottom: "conv_43"
  top: "norm_43"
  batch_norm_param {
  }
}
layer {
  name: "elem_43"
  type: "Eltwise"
  bottom: "norm_43"
  bottom: "relu_41"
  top: "elem_43"
  eltwise_param {
    operation: SUM
  }
}
layer {
  name: "relu_43"
  type: "ReLU"
  bottom: "elem_43"
  top: "relu_43"
}
layer {
  name: "conv_44"
  type: "Convolution"
  bottom: "relu_43"
  top: "conv_44"
  param {
    lr_mult: 1.0
    decay_mult: 1.0
  }
  param {
    lr_mult: 1.0
    decay_mult: 1.0
  }
  convolution_param {
    num_output: 32
    pad: 1
    kernel_size: 3
    stride: 1
    weight_filler {
      type: "gaussian"
      std: 0.117851130664
    }
    bias_filler {
      type: "constant"
      value: 0.0
    }
  }
}
layer {
  name: "norm_44"
  type: "BatchNorm"
  bottom: "conv_44"
  top: "norm_44"
  batch_norm_param {
  }
}
layer {
  name: "relu_44"
  type: "ReLU"
  bottom: "norm_44"
  top: "relu_44"
}
layer {
  name: "conv_45"
  type: "Convolution"
  bottom: "relu_44"
  top: "conv_45"
  param {
    lr_mult: 1.0
    decay_mult: 1.0
  }
  param {
    lr_mult: 1.0
    decay_mult: 1.0
  }
  convolution_param {
    num_output: 32
    pad: 1
    kernel_size: 3
    stride: 1
    weight_filler {
      type: "gaussian"
      std: 0.0833333358169
    }
    bias_filler {
      type: "constant"
      value: 0.0
    }
  }
}
layer {
  name: "norm_45"
  type: "BatchNorm"
  bottom: "conv_45"
  top: "norm_45"
  batch_norm_param {
  }
}
layer {
  name: "elem_45"
  type: "Eltwise"
  bottom: "norm_45"
  bottom: "relu_43"
  top: "elem_45"
  eltwise_param {
    operation: SUM
  }
}
layer {
  name: "relu_45"
  type: "ReLU"
  bottom: "elem_45"
  top: "relu_45"
}
layer {
  name: "conv_46"
  type: "Convolution"
  bottom: "relu_45"
  top: "conv_46"
  param {
    lr_mult: 1.0
    decay_mult: 1.0
  }
  param {
    lr_mult: 1.0
    decay_mult: 1.0
  }
  convolution_param {
    num_output: 32
    pad: 1
    kernel_size: 3
    stride: 1
    weight_filler {
      type: "gaussian"
      std: 0.0833333358169
    }
    bias_filler {
      type: "constant"
      value: 0.0
    }
  }
}
layer {
  name: "norm_46"
  type: "BatchNorm"
  bottom: "conv_46"
  top: "norm_46"
  batch_norm_param {
  }
}
layer {
  name: "relu_46"
  type: "ReLU"
  bottom: "norm_46"
  top: "relu_46"
}
layer {
  name: "conv_47"
  type: "Convolution"
  bottom: "relu_46"
  top: "conv_47"
  param {
    lr_mult: 1.0
    decay_mult: 1.0
  }
  param {
    lr_mult: 1.0
    decay_mult: 1.0
  }
  convolution_param {
    num_output: 32
    pad: 1
    kernel_size: 3
    stride: 1
    weight_filler {
      type: "gaussian"
      std: 0.0833333358169
    }
    bias_filler {
      type: "constant"
      value: 0.0
    }
  }
}
layer {
  name: "norm_47"
  type: "BatchNorm"
  bottom: "conv_47"
  top: "norm_47"
  batch_norm_param {
  }
}
layer {
  name: "elem_47"
  type: "Eltwise"
  bottom: "norm_47"
  bottom: "relu_45"
  top: "elem_47"
  eltwise_param {
    operation: SUM
  }
}
layer {
  name: "relu_47"
  type: "ReLU"
  bottom: "elem_47"
  top: "relu_47"
}
layer {
  name: "conv_48"
  type: "Convolution"
  bottom: "relu_47"
  top: "conv_48"
  param {
    lr_mult: 1.0
    decay_mult: 1.0
  }
  param {
    lr_mult: 1.0
    decay_mult: 1.0
  }
  convolution_param {
    num_output: 32
    pad: 1
    kernel_size: 3
    stride: 1
    weight_filler {
      type: "gaussian"
      std: 0.0833333358169
    }
    bias_filler {
      type: "constant"
      value: 0.0
    }
  }
}
layer {
  name: "norm_48"
  type: "BatchNorm"
  bottom: "conv_48"
  top: "norm_48"
  batch_norm_param {
  }
}
layer {
  name: "relu_48"
  type: "ReLU"
  bottom: "norm_48"
  top: "relu_48"
}
layer {
  name: "conv_49"
  type: "Convolution"
  bottom: "relu_48"
  top: "conv_49"
  param {
    lr_mult: 1.0
    decay_mult: 1.0
  }
  param {
    lr_mult: 1.0
    decay_mult: 1.0
  }
  convolution_param {
    num_output: 32
    pad: 1
    kernel_size: 3
    stride: 1
    weight_filler {
      type: "gaussian"
      std: 0.0833333358169
    }
    bias_filler {
      type: "constant"
      value: 0.0
    }
  }
}
layer {
  name: "norm_49"
  type: "BatchNorm"
  bottom: "conv_49"
  top: "norm_49"
  batch_norm_param {
  }
}
layer {
  name: "elem_49"
  type: "Eltwise"
  bottom: "norm_49"
  bottom: "relu_47"
  top: "elem_49"
  eltwise_param {
    operation: SUM
  }
}
layer {
  name: "relu_49"
  type: "ReLU"
  bottom: "elem_49"
  top: "relu_49"
}
layer {
  name: "conv_50"
  type: "Convolution"
  bottom: "relu_49"
  top: "conv_50"
  param {
    lr_mult: 1.0
    decay_mult: 1.0
  }
  param {
    lr_mult: 1.0
    decay_mult: 1.0
  }
  convolution_param {
    num_output: 32
    pad: 1
    kernel_size: 3
    stride: 1
    weight_filler {
      type: "gaussian"
      std: 0.0833333358169
    }
    bias_filler {
      type: "constant"
      value: 0.0
    }
  }
}
layer {
  name: "norm_50"
  type: "BatchNorm"
  bottom: "conv_50"
  top: "norm_50"
  batch_norm_param {
  }
}
layer {
  name: "relu_50"
  type: "ReLU"
  bottom: "norm_50"
  top: "relu_50"
}
layer {
  name: "conv_51"
  type: "Convolution"
  bottom: "relu_50"
  top: "conv_51"
  param {
    lr_mult: 1.0
    decay_mult: 1.0
  }
  param {
    lr_mult: 1.0
    decay_mult: 1.0
  }
  convolution_param {
    num_output: 32
    pad: 1
    kernel_size: 3
    stride: 1
    weight_filler {
      type: "gaussian"
      std: 0.0833333358169
    }
    bias_filler {
      type: "constant"
      value: 0.0
    }
  }
}
layer {
  name: "norm_51"
  type: "BatchNorm"
  bottom: "conv_51"
  top: "norm_51"
  batch_norm_param {
  }
}
layer {
  name: "elem_51"
  type: "Eltwise"
  bottom: "norm_51"
  bottom: "relu_49"
  top: "elem_51"
  eltwise_param {
    operation: SUM
  }
}
layer {
  name: "relu_51"
  type: "ReLU"
  bottom: "elem_51"
  top: "relu_51"
}
layer {
  name: "conv_52"
  type: "Convolution"
  bottom: "relu_51"
  top: "conv_52"
  param {
    lr_mult: 1.0
    decay_mult: 1.0
  }
  param {
    lr_mult: 1.0
    decay_mult: 1.0
  }
  convolution_param {
    num_output: 32
    pad: 1
    kernel_size: 3
    stride: 1
    weight_filler {
      type: "gaussian"
      std: 0.0833333358169
    }
    bias_filler {
      type: "constant"
      value: 0.0
    }
  }
}
layer {
  name: "norm_52"
  type: "BatchNorm"
  bottom: "conv_52"
  top: "norm_52"
  batch_norm_param {
  }
}
layer {
  name: "relu_52"
  type: "ReLU"
  bottom: "norm_52"
  top: "relu_52"
}
layer {
  name: "conv_53"
  type: "Convolution"
  bottom: "relu_52"
  top: "conv_53"
  param {
    lr_mult: 1.0
    decay_mult: 1.0
  }
  param {
    lr_mult: 1.0
    decay_mult: 1.0
  }
  convolution_param {
    num_output: 32
    pad: 1
    kernel_size: 3
    stride: 1
    weight_filler {
      type: "gaussian"
      std: 0.0833333358169
    }
    bias_filler {
      type: "constant"
      value: 0.0
    }
  }
}
layer {
  name: "norm_53"
  type: "BatchNorm"
  bottom: "conv_53"
  top: "norm_53"
  batch_norm_param {
  }
}
layer {
  name: "elem_53"
  type: "Eltwise"
  bottom: "norm_53"
  bottom: "relu_51"
  top: "elem_53"
  eltwise_param {
    operation: SUM
  }
}
layer {
  name: "relu_53"
  type: "ReLU"
  bottom: "elem_53"
  top: "relu_53"
}
layer {
  name: "conv_54"
  type: "Convolution"
  bottom: "relu_53"
  top: "conv_54"
  param {
    lr_mult: 1.0
    decay_mult: 1.0
  }
  param {
    lr_mult: 1.0
    decay_mult: 1.0
  }
  convolution_param {
    num_output: 32
    pad: 1
    kernel_size: 3
    stride: 1
    weight_filler {
      type: "gaussian"
      std: 0.0833333358169
    }
    bias_filler {
      type: "constant"
      value: 0.0
    }
  }
}
layer {
  name: "norm_54"
  type: "BatchNorm"
  bottom: "conv_54"
  top: "norm_54"
  batch_norm_param {
  }
}
layer {
  name: "relu_54"
  type: "ReLU"
  bottom: "norm_54"
  top: "relu_54"
}
layer {
  name: "conv_55"
  type: "Convolution"
  bottom: "relu_54"
  top: "conv_55"
  param {
    lr_mult: 1.0
    decay_mult: 1.0
  }
  param {
    lr_mult: 1.0
    decay_mult: 1.0
  }
  convolution_param {
    num_output: 32
    pad: 1
    kernel_size: 3
    stride: 1
    weight_filler {
      type: "gaussian"
      std: 0.0833333358169
    }
    bias_filler {
      type: "constant"
      value: 0.0
    }
  }
}
layer {
  name: "norm_55"
  type: "BatchNorm"
  bottom: "conv_55"
  top: "norm_55"
  batch_norm_param {
  }
}
layer {
  name: "elem_55"
  type: "Eltwise"
  bottom: "norm_55"
  bottom: "relu_53"
  top: "elem_55"
  eltwise_param {
    operation: SUM
  }
}
layer {
  name: "relu_55"
  type: "ReLU"
  bottom: "elem_55"
  top: "relu_55"
}
layer {
  name: "conv_56"
  type: "Convolution"
  bottom: "relu_55"
  top: "conv_56"
  param {
    lr_mult: 1.0
    decay_mult: 1.0
  }
  param {
    lr_mult: 1.0
    decay_mult: 1.0
  }
  convolution_param {
    num_output: 64
    pad: 1
    kernel_size: 3
    stride: 1
    weight_filler {
      type: "gaussian"
      std: 0.0833333358169
    }
    bias_filler {
      type: "constant"
      value: 0.0
    }
  }
}
layer {
  name: "norm_56"
  type: "BatchNorm"
  bottom: "conv_56"
  top: "norm_56"
  batch_norm_param {
  }
}
layer {
  name: "relu_56"
  type: "ReLU"
  bottom: "norm_56"
  top: "relu_56"
}
layer {
  name: "conv_57"
  type: "Convolution"
  bottom: "relu_56"
  top: "conv_57"
  param {
    lr_mult: 1.0
    decay_mult: 1.0
  }
  param {
    lr_mult: 1.0
    decay_mult: 1.0
  }
  convolution_param {
    num_output: 64
    pad: 1
    kernel_size: 3
    stride: 1
    weight_filler {
      type: "gaussian"
      std: 0.0589255653322
    }
    bias_filler {
      type: "constant"
      value: 0.0
    }
  }
}
layer {
  name: "norm_57"
  type: "BatchNorm"
  bottom: "conv_57"
  top: "norm_57"
  batch_norm_param {
  }
}
layer {
  name: "elem_57"
  type: "Eltwise"
  bottom: "norm_57"
  bottom: "relu_55"
  top: "elem_57"
  eltwise_param {
    operation: SUM
  }
}
layer {
  name: "relu_57"
  type: "ReLU"
  bottom: "elem_57"
  top: "relu_57"
}
layer {
  name: "conv_58"
  type: "Convolution"
  bottom: "relu_57"
  top: "conv_58"
  param {
    lr_mult: 1.0
    decay_mult: 1.0
  }
  param {
    lr_mult: 1.0
    decay_mult: 1.0
  }
  convolution_param {
    num_output: 64
    pad: 1
    kernel_size: 3
    stride: 1
    weight_filler {
      type: "gaussian"
      std: 0.0589255653322
    }
    bias_filler {
      type: "constant"
      value: 0.0
    }
  }
}
layer {
  name: "norm_58"
  type: "BatchNorm"
  bottom: "conv_58"
  top: "norm_58"
  batch_norm_param {
  }
}
layer {
  name: "relu_58"
  type: "ReLU"
  bottom: "norm_58"
  top: "relu_58"
}
layer {
  name: "conv_59"
  type: "Convolution"
  bottom: "relu_58"
  top: "conv_59"
  param {
    lr_mult: 1.0
    decay_mult: 1.0
  }
  param {
    lr_mult: 1.0
    decay_mult: 1.0
  }
  convolution_param {
    num_output: 64
    pad: 1
    kernel_size: 3
    stride: 1
    weight_filler {
      type: "gaussian"
      std: 0.0589255653322
    }
    bias_filler {
      type: "constant"
      value: 0.0
    }
  }
}
layer {
  name: "norm_59"
  type: "BatchNorm"
  bottom: "conv_59"
  top: "norm_59"
  batch_norm_param {
  }
}
layer {
  name: "elem_59"
  type: "Eltwise"
  bottom: "norm_59"
  bottom: "relu_57"
  top: "elem_59"
  eltwise_param {
    operation: SUM
  }
}
layer {
  name: "relu_59"
  type: "ReLU"
  bottom: "elem_59"
  top: "relu_59"
}
layer {
  name: "conv_60"
  type: "Convolution"
  bottom: "relu_59"
  top: "conv_60"
  param {
    lr_mult: 1.0
    decay_mult: 1.0
  }
  param {
    lr_mult: 1.0
    decay_mult: 1.0
  }
  convolution_param {
    num_output: 64
    pad: 1
    kernel_size: 3
    stride: 1
    weight_filler {
      type: "gaussian"
      std: 0.0589255653322
    }
    bias_filler {
      type: "constant"
      value: 0.0
    }
  }
}
layer {
  name: "norm_60"
  type: "BatchNorm"
  bottom: "conv_60"
  top: "norm_60"
  batch_norm_param {
  }
}
layer {
  name: "relu_60"
  type: "ReLU"
  bottom: "norm_60"
  top: "relu_60"
}
layer {
  name: "conv_61"
  type: "Convolution"
  bottom: "relu_60"
  top: "conv_61"
  param {
    lr_mult: 1.0
    decay_mult: 1.0
  }
  param {
    lr_mult: 1.0
    decay_mult: 1.0
  }
  convolution_param {
    num_output: 64
    pad: 1
    kernel_size: 3
    stride: 1
    weight_filler {
      type: "gaussian"
      std: 0.0589255653322
    }
    bias_filler {
      type: "constant"
      value: 0.0
    }
  }
}
layer {
  name: "norm_61"
  type: "BatchNorm"
  bottom: "conv_61"
  top: "norm_61"
  batch_norm_param {
  }
}
layer {
  name: "elem_61"
  type: "Eltwise"
  bottom: "norm_61"
  bottom: "relu_59"
  top: "elem_61"
  eltwise_param {
    operation: SUM
  }
}
layer {
  name: "relu_61"
  type: "ReLU"
  bottom: "elem_61"
  top: "relu_61"
}
layer {
  name: "conv_62"
  type: "Convolution"
  bottom: "relu_61"
  top: "conv_62"
  param {
    lr_mult: 1.0
    decay_mult: 1.0
  }
  param {
    lr_mult: 1.0
    decay_mult: 1.0
  }
  convolution_param {
    num_output: 64
    pad: 1
    kernel_size: 3
    stride: 1
    weight_filler {
      type: "gaussian"
      std: 0.0589255653322
    }
    bias_filler {
      type: "constant"
      value: 0.0
    }
  }
}
layer {
  name: "norm_62"
  type: "BatchNorm"
  bottom: "conv_62"
  top: "norm_62"
  batch_norm_param {
  }
}
layer {
  name: "relu_62"
  type: "ReLU"
  bottom: "norm_62"
  top: "relu_62"
}
layer {
  name: "conv_63"
  type: "Convolution"
  bottom: "relu_62"
  top: "conv_63"
  param {
    lr_mult: 1.0
    decay_mult: 1.0
  }
  param {
    lr_mult: 1.0
    decay_mult: 1.0
  }
  convolution_param {
    num_output: 64
    pad: 1
    kernel_size: 3
    stride: 1
    weight_filler {
      type: "gaussian"
      std: 0.0589255653322
    }
    bias_filler {
      type: "constant"
      value: 0.0
    }
  }
}
layer {
  name: "norm_63"
  type: "BatchNorm"
  bottom: "conv_63"
  top: "norm_63"
  batch_norm_param {
  }
}
layer {
  name: "elem_63"
  type: "Eltwise"
  bottom: "norm_63"
  bottom: "relu_61"
  top: "elem_63"
  eltwise_param {
    operation: SUM
  }
}
layer {
  name: "relu_63"
  type: "ReLU"
  bottom: "elem_63"
  top: "relu_63"
}
layer {
  name: "conv_64"
  type: "Convolution"
  bottom: "relu_63"
  top: "conv_64"
  param {
    lr_mult: 1.0
    decay_mult: 1.0
  }
  param {
    lr_mult: 1.0
    decay_mult: 1.0
  }
  convolution_param {
    num_output: 64
    pad: 1
    kernel_size: 3
    stride: 1
    weight_filler {
      type: "gaussian"
      std: 0.0589255653322
    }
    bias_filler {
      type: "constant"
      value: 0.0
    }
  }
}
layer {
  name: "norm_64"
  type: "BatchNorm"
  bottom: "conv_64"
  top: "norm_64"
  batch_norm_param {
  }
}
layer {
  name: "relu_64"
  type: "ReLU"
  bottom: "norm_64"
  top: "relu_64"
}
layer {
  name: "conv_65"
  type: "Convolution"
  bottom: "relu_64"
  top: "conv_65"
  param {
    lr_mult: 1.0
    decay_mult: 1.0
  }
  param {
    lr_mult: 1.0
    decay_mult: 1.0
  }
  convolution_param {
    num_output: 64
    pad: 1
    kernel_size: 3
    stride: 1
    weight_filler {
      type: "gaussian"
      std: 0.0589255653322
    }
    bias_filler {
      type: "constant"
      value: 0.0
    }
  }
}
layer {
  name: "norm_65"
  type: "BatchNorm"
  bottom: "conv_65"
  top: "norm_65"
  batch_norm_param {
  }
}
layer {
  name: "elem_65"
  type: "Eltwise"
  bottom: "norm_65"
  bottom: "relu_63"
  top: "elem_65"
  eltwise_param {
    operation: SUM
  }
}
layer {
  name: "relu_65"
  type: "ReLU"
  bottom: "elem_65"
  top: "relu_65"
}
layer {
  name: "conv_66"
  type: "Convolution"
  bottom: "relu_65"
  top: "conv_66"
  param {
    lr_mult: 1.0
    decay_mult: 1.0
  }
  param {
    lr_mult: 1.0
    decay_mult: 1.0
  }
  convolution_param {
    num_output: 64
    pad: 1
    kernel_size: 3
    stride: 1
    weight_filler {
      type: "gaussian"
      std: 0.0589255653322
    }
    bias_filler {
      type: "constant"
      value: 0.0
    }
  }
}
layer {
  name: "norm_66"
  type: "BatchNorm"
  bottom: "conv_66"
  top: "norm_66"
  batch_norm_param {
  }
}
layer {
  name: "relu_66"
  type: "ReLU"
  bottom: "norm_66"
  top: "relu_66"
}
layer {
  name: "conv_67"
  type: "Convolution"
  bottom: "relu_66"
  top: "conv_67"
  param {
    lr_mult: 1.0
    decay_mult: 1.0
  }
  param {
    lr_mult: 1.0
    decay_mult: 1.0
  }
  convolution_param {
    num_output: 64
    pad: 1
    kernel_size: 3
    stride: 1
    weight_filler {
      type: "gaussian"
      std: 0.0589255653322
    }
    bias_filler {
      type: "constant"
      value: 0.0
    }
  }
}
layer {
  name: "norm_67"
  type: "BatchNorm"
  bottom: "conv_67"
  top: "norm_67"
  batch_norm_param {
  }
}
layer {
  name: "elem_67"
  type: "Eltwise"
  bottom: "norm_67"
  bottom: "relu_65"
  top: "elem_67"
  eltwise_param {
    operation: SUM
  }
}
layer {
  name: "relu_67"
  type: "ReLU"
  bottom: "elem_67"
  top: "relu_67"
}
layer {
  name: "conv_68"
  type: "Convolution"
  bottom: "relu_67"
  top: "conv_68"
  param {
    lr_mult: 1.0
    decay_mult: 1.0
  }
  param {
    lr_mult: 1.0
    decay_mult: 1.0
  }
  convolution_param {
    num_output: 128
    pad: 1
    kernel_size: 3
    stride: 1
    weight_filler {
      type: "gaussian"
      std: 0.0589255653322
    }
    bias_filler {
      type: "constant"
      value: 0.0
    }
  }
}
layer {
  name: "norm_68"
  type: "BatchNorm"
  bottom: "conv_68"
  top: "norm_68"
  batch_norm_param {
  }
}
layer {
  name: "relu_68"
  type: "ReLU"
  bottom: "norm_68"
  top: "relu_68"
}
layer {
  name: "conv_69"
  type: "Convolution"
  bottom: "relu_68"
  top: "conv_69"
  param {
    lr_mult: 1.0
    decay_mult: 1.0
  }
  param {
    lr_mult: 1.0
    decay_mult: 1.0
  }
  convolution_param {
    num_output: 128
    pad: 1
    kernel_size: 3
    stride: 1
    weight_filler {
      type: "gaussian"
      std: 0.0416666679084
    }
    bias_filler {
      type: "constant"
      value: 0.0
    }
  }
}
layer {
  name: "norm_69"
  type: "BatchNorm"
  bottom: "conv_69"
  top: "norm_69"
  batch_norm_param {
  }
}
layer {
  name: "elem_69"
  type: "Eltwise"
  bottom: "norm_69"
  bottom: "relu_67"
  top: "elem_69"
  eltwise_param {
    operation: SUM
  }
}
layer {
  name: "relu_69"
  type: "ReLU"
  bottom: "elem_69"
  top: "relu_69"
}
layer {
  name: "conv_70"
  type: "Convolution"
  bottom: "relu_69"
  top: "conv_70"
  param {
    lr_mult: 1.0
    decay_mult: 1.0
  }
  param {
    lr_mult: 1.0
    decay_mult: 1.0
  }
  convolution_param {
    num_output: 128
    pad: 1
    kernel_size: 3
    stride: 1
    weight_filler {
      type: "gaussian"
      std: 0.0416666679084
    }
    bias_filler {
      type: "constant"
      value: 0.0
    }
  }
}
layer {
  name: "norm_70"
  type: "BatchNorm"
  bottom: "conv_70"
  top: "norm_70"
  batch_norm_param {
  }
}
layer {
  name: "relu_70"
  type: "ReLU"
  bottom: "norm_70"
  top: "relu_70"
}
layer {
  name: "conv_71"
  type: "Convolution"
  bottom: "relu_70"
  top: "conv_71"
  param {
    lr_mult: 1.0
    decay_mult: 1.0
  }
  param {
    lr_mult: 1.0
    decay_mult: 1.0
  }
  convolution_param {
    num_output: 128
    pad: 1
    kernel_size: 3
    stride: 1
    weight_filler {
      type: "gaussian"
      std: 0.0416666679084
    }
    bias_filler {
      type: "constant"
      value: 0.0
    }
  }
}
layer {
  name: "norm_71"
  type: "BatchNorm"
  bottom: "conv_71"
  top: "norm_71"
  batch_norm_param {
  }
}
layer {
  name: "elem_71"
  type: "Eltwise"
  bottom: "norm_71"
  bottom: "relu_69"
  top: "elem_71"
  eltwise_param {
    operation: SUM
  }
}
layer {
  name: "relu_71"
  type: "ReLU"
  bottom: "elem_71"
  top: "relu_71"
}
layer {
  name: "conv_72"
  type: "Convolution"
  bottom: "relu_71"
  top: "conv_72"
  param {
    lr_mult: 1.0
    decay_mult: 1.0
  }
  param {
    lr_mult: 1.0
    decay_mult: 1.0
  }
  convolution_param {
    num_output: 128
    pad: 1
    kernel_size: 3
    stride: 1
    weight_filler {
      type: "gaussian"
      std: 0.0416666679084
    }
    bias_filler {
      type: "constant"
      value: 0.0
    }
  }
}
layer {
  name: "norm_72"
  type: "BatchNorm"
  bottom: "conv_72"
  top: "norm_72"
  batch_norm_param {
  }
}
layer {
  name: "relu_72"
  type: "ReLU"
  bottom: "norm_72"
  top: "relu_72"
}
layer {
  name: "conv_73"
  type: "Convolution"
  bottom: "relu_72"
  top: "conv_73"
  param {
    lr_mult: 1.0
    decay_mult: 1.0
  }
  param {
    lr_mult: 1.0
    decay_mult: 1.0
  }
  convolution_param {
    num_output: 128
    pad: 1
    kernel_size: 3
    stride: 1
    weight_filler {
      type: "gaussian"
      std: 0.0416666679084
    }
    bias_filler {
      type: "constant"
      value: 0.0
    }
  }
}
layer {
  name: "norm_73"
  type: "BatchNorm"
  bottom: "conv_73"
  top: "norm_73"
  batch_norm_param {
  }
}
layer {
  name: "elem_73"
  type: "Eltwise"
  bottom: "norm_73"
  bottom: "relu_71"
  top: "elem_73"
  eltwise_param {
    operation: SUM
  }
}
layer {
  name: "relu_73"
  type: "ReLU"
  bottom: "elem_73"
  top: "relu_73"
}
layer {
  name: "conv_74"
  type: "Convolution"
  bottom: "relu_73"
  top: "conv_74"
  param {
    lr_mult: 1.0
    decay_mult: 1.0
  }
  param {
    lr_mult: 1.0
    decay_mult: 1.0
  }
  convolution_param {
    num_output: 128
    pad: 1
    kernel_size: 3
    stride: 1
    weight_filler {
      type: "gaussian"
      std: 0.0416666679084
    }
    bias_filler {
      type: "constant"
      value: 0.0
    }
  }
}
layer {
  name: "norm_74"
  type: "BatchNorm"
  bottom: "conv_74"
  top: "norm_74"
  batch_norm_param {
  }
}
layer {
  name: "relu_74"
  type: "ReLU"
  bottom: "norm_74"
  top: "relu_74"
}
layer {
  name: "conv_75"
  type: "Convolution"
  bottom: "relu_74"
  top: "conv_75"
  param {
    lr_mult: 1.0
    decay_mult: 1.0
  }
  param {
    lr_mult: 1.0
    decay_mult: 1.0
  }
  convolution_param {
    num_output: 128
    pad: 1
    kernel_size: 3
    stride: 1
    weight_filler {
      type: "gaussian"
      std: 0.0416666679084
    }
    bias_filler {
      type: "constant"
      value: 0.0
    }
  }
}
layer {
  name: "norm_75"
  type: "BatchNorm"
  bottom: "conv_75"
  top: "norm_75"
  batch_norm_param {
  }
}
layer {
  name: "elem_75"
  type: "Eltwise"
  bottom: "norm_75"
  bottom: "relu_73"
  top: "elem_75"
  eltwise_param {
    operation: SUM
  }
}
layer {
  name: "relu_75"
  type: "ReLU"
  bottom: "elem_75"
  top: "relu_75"
}
layer {
  name: "conv_76"
  type: "Convolution"
  bottom: "relu_75"
  top: "conv_76"
  param {
    lr_mult: 1.0
    decay_mult: 1.0
  }
  param {
    lr_mult: 1.0
    decay_mult: 1.0
  }
  convolution_param {
    num_output: 128
    pad: 1
    kernel_size: 3
    stride: 1
    weight_filler {
      type: "gaussian"
      std: 0.0416666679084
    }
    bias_filler {
      type: "constant"
      value: 0.0
    }
  }
}
layer {
  name: "norm_76"
  type: "BatchNorm"
  bottom: "conv_76"
  top: "norm_76"
  batch_norm_param {
  }
}
layer {
  name: "relu_76"
  type: "ReLU"
  bottom: "norm_76"
  top: "relu_76"
}
layer {
  name: "conv_77"
  type: "Convolution"
  bottom: "relu_76"
  top: "conv_77"
  param {
    lr_mult: 1.0
    decay_mult: 1.0
  }
  param {
    lr_mult: 1.0
    decay_mult: 1.0
  }
  convolution_param {
    num_output: 128
    pad: 1
    kernel_size: 3
    stride: 1
    weight_filler {
      type: "gaussian"
      std: 0.0416666679084
    }
    bias_filler {
      type: "constant"
      value: 0.0
    }
  }
}
layer {
  name: "norm_77"
  type: "BatchNorm"
  bottom: "conv_77"
  top: "norm_77"
  batch_norm_param {
  }
}
layer {
  name: "elem_77"
  type: "Eltwise"
  bottom: "norm_77"
  bottom: "relu_75"
  top: "elem_77"
  eltwise_param {
    operation: SUM
  }
}
layer {
  name: "relu_77"
  type: "ReLU"
  bottom: "elem_77"
  top: "relu_77"
}
layer {
  name: "conv_78"
  type: "Convolution"
  bottom: "relu_77"
  top: "conv_78"
  param {
    lr_mult: 1.0
    decay_mult: 1.0
  }
  param {
    lr_mult: 1.0
    decay_mult: 1.0
  }
  convolution_param {
    num_output: 128
    pad: 1
    kernel_size: 3
    stride: 1
    weight_filler {
      type: "gaussian"
      std: 0.0416666679084
    }
    bias_filler {
      type: "constant"
      value: 0.0
    }
  }
}
layer {
  name: "norm_78"
  type: "BatchNorm"
  bottom: "conv_78"
  top: "norm_78"
  batch_norm_param {
  }
}
layer {
  name: "relu_78"
  type: "ReLU"
  bottom: "norm_78"
  top: "relu_78"
}
layer {
  name: "conv_79"
  type: "Convolution"
  bottom: "relu_78"
  top: "conv_79"
  param {
    lr_mult: 1.0
    decay_mult: 1.0
  }
  param {
    lr_mult: 1.0
    decay_mult: 1.0
  }
  convolution_param {
    num_output: 128
    pad: 1
    kernel_size: 3
    stride: 1
    weight_filler {
      type: "gaussian"
      std: 0.0416666679084
    }
    bias_filler {
      type: "constant"
      value: 0.0
    }
  }
}
layer {
  name: "norm_79"
  type: "BatchNorm"
  bottom: "conv_79"
  top: "norm_79"
  batch_norm_param {
  }
}
layer {
  name: "elem_79"
  type: "Eltwise"
  bottom: "norm_79"
  bottom: "relu_77"
  top: "elem_79"
  eltwise_param {
    operation: SUM
  }
}
layer {
  name: "relu_79"
  type: "ReLU"
  bottom: "elem_79"
  top: "relu_79"
}
layer {
  name: "conv_80"
  type: "Convolution"
  bottom: "relu_79"
  top: "conv_80"
  param {
    lr_mult: 1.0
    decay_mult: 1.0
  }
  param {
    lr_mult: 1.0
    decay_mult: 1.0
  }
  convolution_param {
    num_output: 256
    pad: 1
    kernel_size: 3
    stride: 1
    weight_filler {
      type: "gaussian"
      std: 0.0416666679084
    }
    bias_filler {
      type: "constant"
      value: 0.0
    }
  }
}
layer {
  name: "norm_80"
  type: "BatchNorm"
  bottom: "conv_80"
  top: "norm_80"
  batch_norm_param {
  }
}
layer {
  name: "relu_80"
  type: "ReLU"
  bottom: "norm_80"
  top: "relu_80"
}
layer {
  name: "conv_81"
  type: "Convolution"
  bottom: "relu_80"
  top: "conv_81"
  param {
    lr_mult: 1.0
    decay_mult: 1.0
  }
  param {
    lr_mult: 1.0
    decay_mult: 1.0
  }
  convolution_param {
    num_output: 256
    pad: 1
    kernel_size: 3
    stride: 1
    weight_filler {
      type: "gaussian"
      std: 0.0294627826661
    }
    bias_filler {
      type: "constant"
      value: 0.0
    }
  }
}
layer {
  name: "norm_81"
  type: "BatchNorm"
  bottom: "conv_81"
  top: "norm_81"
  batch_norm_param {
  }
}
layer {
  name: "elem_81"
  type: "Eltwise"
  bottom: "norm_81"
  bottom: "relu_79"
  top: "elem_81"
  eltwise_param {
    operation: SUM
  }
}
layer {
  name: "relu_81"
  type: "ReLU"
  bottom: "elem_81"
  top: "relu_81"
}
layer {
  name: "conv_82"
  type: "Convolution"
  bottom: "relu_81"
  top: "conv_82"
  param {
    lr_mult: 1.0
    decay_mult: 1.0
  }
  param {
    lr_mult: 1.0
    decay_mult: 1.0
  }
  convolution_param {
    num_output: 256
    pad: 1
    kernel_size: 3
    stride: 1
    weight_filler {
      type: "gaussian"
      std: 0.0294627826661
    }
    bias_filler {
      type: "constant"
      value: 0.0
    }
  }
}
layer {
  name: "norm_82"
  type: "BatchNorm"
  bottom: "conv_82"
  top: "norm_82"
  batch_norm_param {
  }
}
layer {
  name: "relu_82"
  type: "ReLU"
  bottom: "norm_82"
  top: "relu_82"
}
layer {
  name: "conv_83"
  type: "Convolution"
  bottom: "relu_82"
  top: "conv_83"
  param {
    lr_mult: 1.0
    decay_mult: 1.0
  }
  param {
    lr_mult: 1.0
    decay_mult: 1.0
  }
  convolution_param {
    num_output: 256
    pad: 1
    kernel_size: 3
    stride: 1
    weight_filler {
      type: "gaussian"
      std: 0.0294627826661
    }
    bias_filler {
      type: "constant"
      value: 0.0
    }
  }
}
layer {
  name: "norm_83"
  type: "BatchNorm"
  bottom: "conv_83"
  top: "norm_83"
  batch_norm_param {
  }
}
layer {
  name: "elem_83"
  type: "Eltwise"
  bottom: "norm_83"
  bottom: "relu_81"
  top: "elem_83"
  eltwise_param {
    operation: SUM
  }
}
layer {
  name: "relu_83"
  type: "ReLU"
  bottom: "elem_83"
  top: "relu_83"
}
layer {
  name: "conv_84"
  type: "Convolution"
  bottom: "relu_83"
  top: "conv_84"
  param {
    lr_mult: 1.0
    decay_mult: 1.0
  }
  param {
    lr_mult: 1.0
    decay_mult: 1.0
  }
  convolution_param {
    num_output: 256
    pad: 1
    kernel_size: 3
    stride: 1
    weight_filler {
      type: "gaussian"
      std: 0.0294627826661
    }
    bias_filler {
      type: "constant"
      value: 0.0
    }
  }
}
layer {
  name: "norm_84"
  type: "BatchNorm"
  bottom: "conv_84"
  top: "norm_84"
  batch_norm_param {
  }
}
layer {
  name: "relu_84"
  type: "ReLU"
  bottom: "norm_84"
  top: "relu_84"
}
layer {
  name: "conv_85"
  type: "Convolution"
  bottom: "relu_84"
  top: "conv_85"
  param {
    lr_mult: 1.0
    decay_mult: 1.0
  }
  param {
    lr_mult: 1.0
    decay_mult: 1.0
  }
  convolution_param {
    num_output: 256
    pad: 1
    kernel_size: 3
    stride: 1
    weight_filler {
      type: "gaussian"
      std: 0.0294627826661
    }
    bias_filler {
      type: "constant"
      value: 0.0
    }
  }
}
layer {
  name: "norm_85"
  type: "BatchNorm"
  bottom: "conv_85"
  top: "norm_85"
  batch_norm_param {
  }
}
layer {
  name: "elem_85"
  type: "Eltwise"
  bottom: "norm_85"
  bottom: "relu_83"
  top: "elem_85"
  eltwise_param {
    operation: SUM
  }
}
layer {
  name: "relu_85"
  type: "ReLU"
  bottom: "elem_85"
  top: "relu_85"
}
layer {
  name: "conv_86"
  type: "Convolution"
  bottom: "relu_85"
  top: "conv_86"
  param {
    lr_mult: 1.0
    decay_mult: 1.0
  }
  param {
    lr_mult: 1.0
    decay_mult: 1.0
  }
  convolution_param {
    num_output: 256
    pad: 1
    kernel_size: 3
    stride: 1
    weight_filler {
      type: "gaussian"
      std: 0.0294627826661
    }
    bias_filler {
      type: "constant"
      value: 0.0
    }
  }
}
layer {
  name: "norm_86"
  type: "BatchNorm"
  bottom: "conv_86"
  top: "norm_86"
  batch_norm_param {
  }
}
layer {
  name: "relu_86"
  type: "ReLU"
  bottom: "norm_86"
  top: "relu_86"
}
layer {
  name: "conv_87"
  type: "Convolution"
  bottom: "relu_86"
  top: "conv_87"
  param {
    lr_mult: 1.0
    decay_mult: 1.0
  }
  param {
    lr_mult: 1.0
    decay_mult: 1.0
  }
  convolution_param {
    num_output: 256
    pad: 1
    kernel_size: 3
    stride: 1
    weight_filler {
      type: "gaussian"
      std: 0.0294627826661
    }
    bias_filler {
      type: "constant"
      value: 0.0
    }
  }
}
layer {
  name: "norm_87"
  type: "BatchNorm"
  bottom: "conv_87"
  top: "norm_87"
  batch_norm_param {
  }
}
layer {
  name: "elem_87"
  type: "Eltwise"
  bottom: "norm_87"
  bottom: "relu_85"
  top: "elem_87"
  eltwise_param {
    operation: SUM
  }
}
layer {
  name: "relu_87"
  type: "ReLU"
  bottom: "elem_87"
  top: "relu_87"
}
layer {
  name: "conv_88"
  type: "Convolution"
  bottom: "relu_87"
  top: "conv_88"
  param {
    lr_mult: 1.0
    decay_mult: 1.0
  }
  param {
    lr_mult: 1.0
    decay_mult: 1.0
  }
  convolution_param {
    num_output: 256
    pad: 1
    kernel_size: 3
    stride: 1
    weight_filler {
      type: "gaussian"
      std: 0.0294627826661
    }
    bias_filler {
      type: "constant"
      value: 0.0
    }
  }
}
layer {
  name: "norm_88"
  type: "BatchNorm"
  bottom: "conv_88"
  top: "norm_88"
  batch_norm_param {
  }
}
layer {
  name: "relu_88"
  type: "ReLU"
  bottom: "norm_88"
  top: "relu_88"
}
layer {
  name: "conv_89"
  type: "Convolution"
  bottom: "relu_88"
  top: "conv_89"
  param {
    lr_mult: 1.0
    decay_mult: 1.0
  }
  param {
    lr_mult: 1.0
    decay_mult: 1.0
  }
  convolution_param {
    num_output: 256
    pad: 1
    kernel_size: 3
    stride: 1
    weight_filler {
      type: "gaussian"
      std: 0.0294627826661
    }
    bias_filler {
      type: "constant"
      value: 0.0
    }
  }
}
layer {
  name: "norm_89"
  type: "BatchNorm"
  bottom: "conv_89"
  top: "norm_89"
  batch_norm_param {
  }
}
layer {
  name: "elem_89"
  type: "Eltwise"
  bottom: "norm_89"
  bottom: "relu_87"
  top: "elem_89"
  eltwise_param {
    operation: SUM
  }
}
layer {
  name: "relu_89"
  type: "ReLU"
  bottom: "elem_89"
  top: "relu_89"
}
layer {
  name: "conv_90"
  type: "Convolution"
  bottom: "relu_89"
  top: "conv_90"
  param {
    lr_mult: 1.0
    decay_mult: 1.0
  }
  param {
    lr_mult: 1.0
    decay_mult: 1.0
  }
  convolution_param {
    num_output: 256
    pad: 1
    kernel_size: 3
    stride: 1
    weight_filler {
      type: "gaussian"
      std: 0.0294627826661
    }
    bias_filler {
      type: "constant"
      value: 0.0
    }
  }
}
layer {
  name: "norm_90"
  type: "BatchNorm"
  bottom: "conv_90"
  top: "norm_90"
  batch_norm_param {
  }
}
layer {
  name: "relu_90"
  type: "ReLU"
  bottom: "norm_90"
  top: "relu_90"
}
layer {
  name: "conv_91"
  type: "Convolution"
  bottom: "relu_90"
  top: "conv_91"
  param {
    lr_mult: 1.0
    decay_mult: 1.0
  }
  param {
    lr_mult: 1.0
    decay_mult: 1.0
  }
  convolution_param {
    num_output: 256
    pad: 1
    kernel_size: 3
    stride: 1
    weight_filler {
      type: "gaussian"
      std: 0.0294627826661
    }
    bias_filler {
      type: "constant"
      value: 0.0
    }
  }
}
layer {
  name: "norm_91"
  type: "BatchNorm"
  bottom: "conv_91"
  top: "norm_91"
  batch_norm_param {
  }
}
layer {
  name: "elem_91"
  type: "Eltwise"
  bottom: "norm_91"
  bottom: "relu_89"
  top: "elem_91"
  eltwise_param {
    operation: SUM
  }
}
layer {
  name: "relu_91"
  type: "ReLU"
  bottom: "elem_91"
  top: "relu_91"
}
layer {
  name: "pool_92"
  type: "Pooling"
  bottom: "relu_91"
  top: "pool_92"
  pooling_param {
    pool: AVE
    kernel_size: 2
    stride: 2
  }
}
layer {
  name: "fc_92"
  type: "InnerProduct"
  bottom: "pool_92"
  top: "fc_92"
  param {
    lr_mult: 1.0
    decay_mult: 1.0
  }
  param {
    lr_mult: 1.0
    decay_mult: 1.0
  }
  inner_product_param {
    num_output: 10
    weight_filler {
      type: "gaussian"
      std: 0.00999999977648
    }
    bias_filler {
      type: "constant"
      value: 0.0
    }
  }
}
layer {
  name: "loss"
  type: "SoftmaxWithLoss"
  bottom: "fc_92"
  bottom: "label"
  top: "loss"
}
layer {
  name: "accuracy"
  type: "Accuracy"
  bottom: "fc_92"
  bottom: "label"
  top: "accuracy"
  include {
    phase: TEST
  }
}
layer {
  name: "conv_93"
  type: "Convolution"
  bottom: "relu_92"
  top: "conv_93"
  param {
    lr_mult: 1.0
    decay_mult: 1.0
  }
  param {
    lr_mult: 1.0
    decay_mult: 1.0
  }
  convolution_param {
    num_output: 16
    pad: 1
    kernel_size: 3
    stride: 1
    weight_filler {
      type: "gaussian"
      std: 0.0294627826661
    }
    bias_filler {
      type: "constant"
      value: 0.0
    }
  }
}
layer {
  name: "norm_93"
  type: "BatchNorm"
  bottom: "conv_93"
  top: "norm_93"
  batch_norm_param {
  }
}
layer {
  name: "relu_93"
  type: "ReLU"
  bottom: "norm_93"
  top: "relu_93"
}
layer {
  name: "conv_94"
  type: "Convolution"
  bottom: "relu_93"
  top: "conv_94"
  param {
    lr_mult: 1.0
    decay_mult: 1.0
  }
  param {
    lr_mult: 1.0
    decay_mult: 1.0
  }
  convolution_param {
    num_output: 16
    pad: 1
    kernel_size: 3
    stride: 1
    weight_filler {
      type: "gaussian"
      std: 0.117851130664
    }
    bias_filler {
      type: "constant"
      value: 0.0
    }
  }
}
layer {
  name: "norm_94"
  type: "BatchNorm"
  bottom: "conv_94"
  top: "norm_94"
  batch_norm_param {
  }
}
layer {
  name: "elem_94"
  type: "Eltwise"
  bottom: "norm_94"
  bottom: "relu_92"
  top: "elem_94"
  eltwise_param {
    operation: SUM
  }
}
layer {
  name: "relu_94"
  type: "ReLU"
  bottom: "elem_94"
  top: "relu_94"
}
layer {
  name: "conv_95"
  type: "Convolution"
  bottom: "relu_94"
  top: "conv_95"
  param {
    lr_mult: 1.0
    decay_mult: 1.0
  }
  param {
    lr_mult: 1.0
    decay_mult: 1.0
  }
  convolution_param {
    num_output: 16
    pad: 1
    kernel_size: 3
    stride: 1
    weight_filler {
      type: "gaussian"
      std: 0.117851130664
    }
    bias_filler {
      type: "constant"
      value: 0.0
    }
  }
}
layer {
  name: "norm_95"
  type: "BatchNorm"
  bottom: "conv_95"
  top: "norm_95"
  batch_norm_param {
  }
}
layer {
  name: "relu_95"
  type: "ReLU"
  bottom: "norm_95"
  top: "relu_95"
}
layer {
  name: "conv_96"
  type: "Convolution"
  bottom: "relu_95"
  top: "conv_96"
  param {
    lr_mult: 1.0
    decay_mult: 1.0
  }
  param {
    lr_mult: 1.0
    decay_mult: 1.0
  }
  convolution_param {
    num_output: 16
    pad: 1
    kernel_size: 3
    stride: 1
    weight_filler {
      type: "gaussian"
      std: 0.117851130664
    }
    bias_filler {
      type: "constant"
      value: 0.0
    }
  }
}
layer {
  name: "norm_96"
  type: "BatchNorm"
  bottom: "conv_96"
  top: "norm_96"
  batch_norm_param {
  }
}
layer {
  name: "elem_96"
  type: "Eltwise"
  bottom: "norm_96"
  bottom: "relu_94"
  top: "elem_96"
  eltwise_param {
    operation: SUM
  }
}
layer {
  name: "relu_96"
  type: "ReLU"
  bottom: "elem_96"
  top: "relu_96"
}
layer {
  name: "conv_97"
  type: "Convolution"
  bottom: "relu_96"
  top: "conv_97"
  param {
    lr_mult: 1.0
    decay_mult: 1.0
  }
  param {
    lr_mult: 1.0
    decay_mult: 1.0
  }
  convolution_param {
    num_output: 16
    pad: 1
    kernel_size: 3
    stride: 1
    weight_filler {
      type: "gaussian"
      std: 0.117851130664
    }
    bias_filler {
      type: "constant"
      value: 0.0
    }
  }
}
layer {
  name: "norm_97"
  type: "BatchNorm"
  bottom: "conv_97"
  top: "norm_97"
  batch_norm_param {
  }
}
layer {
  name: "relu_97"
  type: "ReLU"
  bottom: "norm_97"
  top: "relu_97"
}
layer {
  name: "conv_98"
  type: "Convolution"
  bottom: "relu_97"
  top: "conv_98"
  param {
    lr_mult: 1.0
    decay_mult: 1.0
  }
  param {
    lr_mult: 1.0
    decay_mult: 1.0
  }
  convolution_param {
    num_output: 16
    pad: 1
    kernel_size: 3
    stride: 1
    weight_filler {
      type: "gaussian"
      std: 0.117851130664
    }
    bias_filler {
      type: "constant"
      value: 0.0
    }
  }
}
layer {
  name: "norm_98"
  type: "BatchNorm"
  bottom: "conv_98"
  top: "norm_98"
  batch_norm_param {
  }
}
layer {
  name: "elem_98"
  type: "Eltwise"
  bottom: "norm_98"
  bottom: "relu_96"
  top: "elem_98"
  eltwise_param {
    operation: SUM
  }
}
layer {
  name: "relu_98"
  type: "ReLU"
  bottom: "elem_98"
  top: "relu_98"
}
layer {
  name: "conv_99"
  type: "Convolution"
  bottom: "relu_98"
  top: "conv_99"
  param {
    lr_mult: 1.0
    decay_mult: 1.0
  }
  param {
    lr_mult: 1.0
    decay_mult: 1.0
  }
  convolution_param {
    num_output: 16
    pad: 1
    kernel_size: 3
    stride: 1
    weight_filler {
      type: "gaussian"
      std: 0.117851130664
    }
    bias_filler {
      type: "constant"
      value: 0.0
    }
  }
}
layer {
  name: "norm_99"
  type: "BatchNorm"
  bottom: "conv_99"
  top: "norm_99"
  batch_norm_param {
  }
}
layer {
  name: "relu_99"
  type: "ReLU"
  bottom: "norm_99"
  top: "relu_99"
}
layer {
  name: "conv_100"
  type: "Convolution"
  bottom: "relu_99"
  top: "conv_100"
  param {
    lr_mult: 1.0
    decay_mult: 1.0
  }
  param {
    lr_mult: 1.0
    decay_mult: 1.0
  }
  convolution_param {
    num_output: 16
    pad: 1
    kernel_size: 3
    stride: 1
    weight_filler {
      type: "gaussian"
      std: 0.117851130664
    }
    bias_filler {
      type: "constant"
      value: 0.0
    }
  }
}
layer {
  name: "norm_100"
  type: "BatchNorm"
  bottom: "conv_100"
  top: "norm_100"
  batch_norm_param {
  }
}
layer {
  name: "elem_100"
  type: "Eltwise"
  bottom: "norm_100"
  bottom: "relu_98"
  top: "elem_100"
  eltwise_param {
    operation: SUM
  }
}
layer {
  name: "relu_100"
  type: "ReLU"
  bottom: "elem_100"
  top: "relu_100"
}
layer {
  name: "conv_101"
  type: "Convolution"
  bottom: "relu_100"
  top: "conv_101"
  param {
    lr_mult: 1.0
    decay_mult: 1.0
  }
  param {
    lr_mult: 1.0
    decay_mult: 1.0
  }
  convolution_param {
    num_output: 16
    pad: 1
    kernel_size: 3
    stride: 1
    weight_filler {
      type: "gaussian"
      std: 0.117851130664
    }
    bias_filler {
      type: "constant"
      value: 0.0
    }
  }
}
layer {
  name: "norm_101"
  type: "BatchNorm"
  bottom: "conv_101"
  top: "norm_101"
  batch_norm_param {
  }
}
layer {
  name: "relu_101"
  type: "ReLU"
  bottom: "norm_101"
  top: "relu_101"
}
layer {
  name: "conv_102"
  type: "Convolution"
  bottom: "relu_101"
  top: "conv_102"
  param {
    lr_mult: 1.0
    decay_mult: 1.0
  }
  param {
    lr_mult: 1.0
    decay_mult: 1.0
  }
  convolution_param {
    num_output: 16
    pad: 1
    kernel_size: 3
    stride: 1
    weight_filler {
      type: "gaussian"
      std: 0.117851130664
    }
    bias_filler {
      type: "constant"
      value: 0.0
    }
  }
}
layer {
  name: "norm_102"
  type: "BatchNorm"
  bottom: "conv_102"
  top: "norm_102"
  batch_norm_param {
  }
}
layer {
  name: "elem_102"
  type: "Eltwise"
  bottom: "norm_102"
  bottom: "relu_100"
  top: "elem_102"
  eltwise_param {
    operation: SUM
  }
}
layer {
  name: "relu_102"
  type: "ReLU"
  bottom: "elem_102"
  top: "relu_102"
}
layer {
  name: "conv_103"
  type: "Convolution"
  bottom: "relu_102"
  top: "conv_103"
  param {
    lr_mult: 1.0
    decay_mult: 1.0
  }
  param {
    lr_mult: 1.0
    decay_mult: 1.0
  }
  convolution_param {
    num_output: 16
    pad: 1
    kernel_size: 3
    stride: 1
    weight_filler {
      type: "gaussian"
      std: 0.117851130664
    }
    bias_filler {
      type: "constant"
      value: 0.0
    }
  }
}
layer {
  name: "norm_103"
  type: "BatchNorm"
  bottom: "conv_103"
  top: "norm_103"
  batch_norm_param {
  }
}
layer {
  name: "relu_103"
  type: "ReLU"
  bottom: "norm_103"
  top: "relu_103"
}
layer {
  name: "conv_104"
  type: "Convolution"
  bottom: "relu_103"
  top: "conv_104"
  param {
    lr_mult: 1.0
    decay_mult: 1.0
  }
  param {
    lr_mult: 1.0
    decay_mult: 1.0
  }
  convolution_param {
    num_output: 16
    pad: 1
    kernel_size: 3
    stride: 1
    weight_filler {
      type: "gaussian"
      std: 0.117851130664
    }
    bias_filler {
      type: "constant"
      value: 0.0
    }
  }
}
layer {
  name: "norm_104"
  type: "BatchNorm"
  bottom: "conv_104"
  top: "norm_104"
  batch_norm_param {
  }
}
layer {
  name: "elem_104"
  type: "Eltwise"
  bottom: "norm_104"
  bottom: "relu_102"
  top: "elem_104"
  eltwise_param {
    operation: SUM
  }
}
layer {
  name: "relu_104"
  type: "ReLU"
  bottom: "elem_104"
  top: "relu_104"
}
layer {
  name: "conv_105"
  type: "Convolution"
  bottom: "relu_104"
  top: "conv_105"
  param {
    lr_mult: 1.0
    decay_mult: 1.0
  }
  param {
    lr_mult: 1.0
    decay_mult: 1.0
  }
  convolution_param {
    num_output: 16
    pad: 1
    kernel_size: 3
    stride: 1
    weight_filler {
      type: "gaussian"
      std: 0.117851130664
    }
    bias_filler {
      type: "constant"
      value: 0.0
    }
  }
}
layer {
  name: "norm_105"
  type: "BatchNorm"
  bottom: "conv_105"
  top: "norm_105"
  batch_norm_param {
  }
}
layer {
  name: "relu_105"
  type: "ReLU"
  bottom: "norm_105"
  top: "relu_105"
}
layer {
  name: "conv_106"
  type: "Convolution"
  bottom: "relu_105"
  top: "conv_106"
  param {
    lr_mult: 1.0
    decay_mult: 1.0
  }
  param {
    lr_mult: 1.0
    decay_mult: 1.0
  }
  convolution_param {
    num_output: 16
    pad: 1
    kernel_size: 3
    stride: 1
    weight_filler {
      type: "gaussian"
      std: 0.117851130664
    }
    bias_filler {
      type: "constant"
      value: 0.0
    }
  }
}
layer {
  name: "norm_106"
  type: "BatchNorm"
  bottom: "conv_106"
  top: "norm_106"
  batch_norm_param {
  }
}
layer {
  name: "elem_106"
  type: "Eltwise"
  bottom: "norm_106"
  bottom: "relu_104"
  top: "elem_106"
  eltwise_param {
    operation: SUM
  }
}
layer {
  name: "relu_106"
  type: "ReLU"
  bottom: "elem_106"
  top: "relu_106"
}
layer {
  name: "conv_107"
  type: "Convolution"
  bottom: "relu_106"
  top: "conv_107"
  param {
    lr_mult: 1.0
    decay_mult: 1.0
  }
  param {
    lr_mult: 1.0
    decay_mult: 1.0
  }
  convolution_param {
    num_output: 16
    pad: 1
    kernel_size: 3
    stride: 1
    weight_filler {
      type: "gaussian"
      std: 0.117851130664
    }
    bias_filler {
      type: "constant"
      value: 0.0
    }
  }
}
layer {
  name: "norm_107"
  type: "BatchNorm"
  bottom: "conv_107"
  top: "norm_107"
  batch_norm_param {
  }
}
layer {
  name: "relu_107"
  type: "ReLU"
  bottom: "norm_107"
  top: "relu_107"
}
layer {
  name: "conv_108"
  type: "Convolution"
  bottom: "relu_107"
  top: "conv_108"
  param {
    lr_mult: 1.0
    decay_mult: 1.0
  }
  param {
    lr_mult: 1.0
    decay_mult: 1.0
  }
  convolution_param {
    num_output: 16
    pad: 1
    kernel_size: 3
    stride: 1
    weight_filler {
      type: "gaussian"
      std: 0.117851130664
    }
    bias_filler {
      type: "constant"
      value: 0.0
    }
  }
}
layer {
  name: "norm_108"
  type: "BatchNorm"
  bottom: "conv_108"
  top: "norm_108"
  batch_norm_param {
  }
}
layer {
  name: "elem_108"
  type: "Eltwise"
  bottom: "norm_108"
  bottom: "relu_106"
  top: "elem_108"
  eltwise_param {
    operation: SUM
  }
}
layer {
  name: "relu_108"
  type: "ReLU"
  bottom: "elem_108"
  top: "relu_108"
}
layer {
  name: "conv_109"
  type: "Convolution"
  bottom: "relu_108"
  top: "conv_109"
  param {
    lr_mult: 1.0
    decay_mult: 1.0
  }
  param {
    lr_mult: 1.0
    decay_mult: 1.0
  }
  convolution_param {
    num_output: 16
    pad: 1
    kernel_size: 3
    stride: 1
    weight_filler {
      type: "gaussian"
      std: 0.117851130664
    }
    bias_filler {
      type: "constant"
      value: 0.0
    }
  }
}
layer {
  name: "norm_109"
  type: "BatchNorm"
  bottom: "conv_109"
  top: "norm_109"
  batch_norm_param {
  }
}
layer {
  name: "relu_109"
  type: "ReLU"
  bottom: "norm_109"
  top: "relu_109"
}
layer {
  name: "conv_110"
  type: "Convolution"
  bottom: "relu_109"
  top: "conv_110"
  param {
    lr_mult: 1.0
    decay_mult: 1.0
  }
  param {
    lr_mult: 1.0
    decay_mult: 1.0
  }
  convolution_param {
    num_output: 16
    pad: 1
    kernel_size: 3
    stride: 1
    weight_filler {
      type: "gaussian"
      std: 0.117851130664
    }
    bias_filler {
      type: "constant"
      value: 0.0
    }
  }
}
layer {
  name: "norm_110"
  type: "BatchNorm"
  bottom: "conv_110"
  top: "norm_110"
  batch_norm_param {
  }
}
layer {
  name: "elem_110"
  type: "Eltwise"
  bottom: "norm_110"
  bottom: "relu_108"
  top: "elem_110"
  eltwise_param {
    operation: SUM
  }
}
layer {
  name: "relu_110"
  type: "ReLU"
  bottom: "elem_110"
  top: "relu_110"
}
layer {
  name: "conv_111"
  type: "Convolution"
  bottom: "relu_110"
  top: "conv_111"
  param {
    lr_mult: 1.0
    decay_mult: 1.0
  }
  param {
    lr_mult: 1.0
    decay_mult: 1.0
  }
  convolution_param {
    num_output: 32
    pad: 1
    kernel_size: 3
    stride: 1
    weight_filler {
      type: "gaussian"
      std: 0.117851130664
    }
    bias_filler {
      type: "constant"
      value: 0.0
    }
  }
}
layer {
  name: "norm_111"
  type: "BatchNorm"
  bottom: "conv_111"
  top: "norm_111"
  batch_norm_param {
  }
}
layer {
  name: "relu_111"
  type: "ReLU"
  bottom: "norm_111"
  top: "relu_111"
}
layer {
  name: "conv_112"
  type: "Convolution"
  bottom: "relu_111"
  top: "conv_112"
  param {
    lr_mult: 1.0
    decay_mult: 1.0
  }
  param {
    lr_mult: 1.0
    decay_mult: 1.0
  }
  convolution_param {
    num_output: 32
    pad: 1
    kernel_size: 3
    stride: 1
    weight_filler {
      type: "gaussian"
      std: 0.0833333358169
    }
    bias_filler {
      type: "constant"
      value: 0.0
    }
  }
}
layer {
  name: "norm_112"
  type: "BatchNorm"
  bottom: "conv_112"
  top: "norm_112"
  batch_norm_param {
  }
}
layer {
  name: "elem_112"
  type: "Eltwise"
  bottom: "norm_112"
  bottom: "relu_110"
  top: "elem_112"
  eltwise_param {
    operation: SUM
  }
}
layer {
  name: "relu_112"
  type: "ReLU"
  bottom: "elem_112"
  top: "relu_112"
}
layer {
  name: "conv_113"
  type: "Convolution"
  bottom: "relu_112"
  top: "conv_113"
  param {
    lr_mult: 1.0
    decay_mult: 1.0
  }
  param {
    lr_mult: 1.0
    decay_mult: 1.0
  }
  convolution_param {
    num_output: 32
    pad: 1
    kernel_size: 3
    stride: 1
    weight_filler {
      type: "gaussian"
      std: 0.0833333358169
    }
    bias_filler {
      type: "constant"
      value: 0.0
    }
  }
}
layer {
  name: "norm_113"
  type: "BatchNorm"
  bottom: "conv_113"
  top: "norm_113"
  batch_norm_param {
  }
}
layer {
  name: "relu_113"
  type: "ReLU"
  bottom: "norm_113"
  top: "relu_113"
}
layer {
  name: "conv_114"
  type: "Convolution"
  bottom: "relu_113"
  top: "conv_114"
  param {
    lr_mult: 1.0
    decay_mult: 1.0
  }
  param {
    lr_mult: 1.0
    decay_mult: 1.0
  }
  convolution_param {
    num_output: 32
    pad: 1
    kernel_size: 3
    stride: 1
    weight_filler {
      type: "gaussian"
      std: 0.0833333358169
    }
    bias_filler {
      type: "constant"
      value: 0.0
    }
  }
}
layer {
  name: "norm_114"
  type: "BatchNorm"
  bottom: "conv_114"
  top: "norm_114"
  batch_norm_param {
  }
}
layer {
  name: "elem_114"
  type: "Eltwise"
  bottom: "norm_114"
  bottom: "relu_112"
  top: "elem_114"
  eltwise_param {
    operation: SUM
  }
}
layer {
  name: "relu_114"
  type: "ReLU"
  bottom: "elem_114"
  top: "relu_114"
}
layer {
  name: "conv_115"
  type: "Convolution"
  bottom: "relu_114"
  top: "conv_115"
  param {
    lr_mult: 1.0
    decay_mult: 1.0
  }
  param {
    lr_mult: 1.0
    decay_mult: 1.0
  }
  convolution_param {
    num_output: 32
    pad: 1
    kernel_size: 3
    stride: 1
    weight_filler {
      type: "gaussian"
      std: 0.0833333358169
    }
    bias_filler {
      type: "constant"
      value: 0.0
    }
  }
}
layer {
  name: "norm_115"
  type: "BatchNorm"
  bottom: "conv_115"
  top: "norm_115"
  batch_norm_param {
  }
}
layer {
  name: "relu_115"
  type: "ReLU"
  bottom: "norm_115"
  top: "relu_115"
}
layer {
  name: "conv_116"
  type: "Convolution"
  bottom: "relu_115"
  top: "conv_116"
  param {
    lr_mult: 1.0
    decay_mult: 1.0
  }
  param {
    lr_mult: 1.0
    decay_mult: 1.0
  }
  convolution_param {
    num_output: 32
    pad: 1
    kernel_size: 3
    stride: 1
    weight_filler {
      type: "gaussian"
      std: 0.0833333358169
    }
    bias_filler {
      type: "constant"
      value: 0.0
    }
  }
}
layer {
  name: "norm_116"
  type: "BatchNorm"
  bottom: "conv_116"
  top: "norm_116"
  batch_norm_param {
  }
}
layer {
  name: "elem_116"
  type: "Eltwise"
  bottom: "norm_116"
  bottom: "relu_114"
  top: "elem_116"
  eltwise_param {
    operation: SUM
  }
}
layer {
  name: "relu_116"
  type: "ReLU"
  bottom: "elem_116"
  top: "relu_116"
}
layer {
  name: "conv_117"
  type: "Convolution"
  bottom: "relu_116"
  top: "conv_117"
  param {
    lr_mult: 1.0
    decay_mult: 1.0
  }
  param {
    lr_mult: 1.0
    decay_mult: 1.0
  }
  convolution_param {
    num_output: 32
    pad: 1
    kernel_size: 3
    stride: 1
    weight_filler {
      type: "gaussian"
      std: 0.0833333358169
    }
    bias_filler {
      type: "constant"
      value: 0.0
    }
  }
}
layer {
  name: "norm_117"
  type: "BatchNorm"
  bottom: "conv_117"
  top: "norm_117"
  batch_norm_param {
  }
}
layer {
  name: "relu_117"
  type: "ReLU"
  bottom: "norm_117"
  top: "relu_117"
}
layer {
  name: "conv_118"
  type: "Convolution"
  bottom: "relu_117"
  top: "conv_118"
  param {
    lr_mult: 1.0
    decay_mult: 1.0
  }
  param {
    lr_mult: 1.0
    decay_mult: 1.0
  }
  convolution_param {
    num_output: 32
    pad: 1
    kernel_size: 3
    stride: 1
    weight_filler {
      type: "gaussian"
      std: 0.0833333358169
    }
    bias_filler {
      type: "constant"
      value: 0.0
    }
  }
}
layer {
  name: "norm_118"
  type: "BatchNorm"
  bottom: "conv_118"
  top: "norm_118"
  batch_norm_param {
  }
}
layer {
  name: "elem_118"
  type: "Eltwise"
  bottom: "norm_118"
  bottom: "relu_116"
  top: "elem_118"
  eltwise_param {
    operation: SUM
  }
}
layer {
  name: "relu_118"
  type: "ReLU"
  bottom: "elem_118"
  top: "relu_118"
}
layer {
  name: "conv_119"
  type: "Convolution"
  bottom: "relu_118"
  top: "conv_119"
  param {
    lr_mult: 1.0
    decay_mult: 1.0
  }
  param {
    lr_mult: 1.0
    decay_mult: 1.0
  }
  convolution_param {
    num_output: 32
    pad: 1
    kernel_size: 3
    stride: 1
    weight_filler {
      type: "gaussian"
      std: 0.0833333358169
    }
    bias_filler {
      type: "constant"
      value: 0.0
    }
  }
}
layer {
  name: "norm_119"
  type: "BatchNorm"
  bottom: "conv_119"
  top: "norm_119"
  batch_norm_param {
  }
}
layer {
  name: "relu_119"
  type: "ReLU"
  bottom: "norm_119"
  top: "relu_119"
}
layer {
  name: "conv_120"
  type: "Convolution"
  bottom: "relu_119"
  top: "conv_120"
  param {
    lr_mult: 1.0
    decay_mult: 1.0
  }
  param {
    lr_mult: 1.0
    decay_mult: 1.0
  }
  convolution_param {
    num_output: 32
    pad: 1
    kernel_size: 3
    stride: 1
    weight_filler {
      type: "gaussian"
      std: 0.0833333358169
    }
    bias_filler {
      type: "constant"
      value: 0.0
    }
  }
}
layer {
  name: "norm_120"
  type: "BatchNorm"
  bottom: "conv_120"
  top: "norm_120"
  batch_norm_param {
  }
}
layer {
  name: "elem_120"
  type: "Eltwise"
  bottom: "norm_120"
  bottom: "relu_118"
  top: "elem_120"
  eltwise_param {
    operation: SUM
  }
}
layer {
  name: "relu_120"
  type: "ReLU"
  bottom: "elem_120"
  top: "relu_120"
}
layer {
  name: "conv_121"
  type: "Convolution"
  bottom: "relu_120"
  top: "conv_121"
  param {
    lr_mult: 1.0
    decay_mult: 1.0
  }
  param {
    lr_mult: 1.0
    decay_mult: 1.0
  }
  convolution_param {
    num_output: 32
    pad: 1
    kernel_size: 3
    stride: 1
    weight_filler {
      type: "gaussian"
      std: 0.0833333358169
    }
    bias_filler {
      type: "constant"
      value: 0.0
    }
  }
}
layer {
  name: "norm_121"
  type: "BatchNorm"
  bottom: "conv_121"
  top: "norm_121"
  batch_norm_param {
  }
}
layer {
  name: "relu_121"
  type: "ReLU"
  bottom: "norm_121"
  top: "relu_121"
}
layer {
  name: "conv_122"
  type: "Convolution"
  bottom: "relu_121"
  top: "conv_122"
  param {
    lr_mult: 1.0
    decay_mult: 1.0
  }
  param {
    lr_mult: 1.0
    decay_mult: 1.0
  }
  convolution_param {
    num_output: 32
    pad: 1
    kernel_size: 3
    stride: 1
    weight_filler {
      type: "gaussian"
      std: 0.0833333358169
    }
    bias_filler {
      type: "constant"
      value: 0.0
    }
  }
}
layer {
  name: "norm_122"
  type: "BatchNorm"
  bottom: "conv_122"
  top: "norm_122"
  batch_norm_param {
  }
}
layer {
  name: "elem_122"
  type: "Eltwise"
  bottom: "norm_122"
  bottom: "relu_120"
  top: "elem_122"
  eltwise_param {
    operation: SUM
  }
}
layer {
  name: "relu_122"
  type: "ReLU"
  bottom: "elem_122"
  top: "relu_122"
}
layer {
  name: "conv_123"
  type: "Convolution"
  bottom: "relu_122"
  top: "conv_123"
  param {
    lr_mult: 1.0
    decay_mult: 1.0
  }
  param {
    lr_mult: 1.0
    decay_mult: 1.0
  }
  convolution_param {
    num_output: 32
    pad: 1
    kernel_size: 3
    stride: 1
    weight_filler {
      type: "gaussian"
      std: 0.0833333358169
    }
    bias_filler {
      type: "constant"
      value: 0.0
    }
  }
}
layer {
  name: "norm_123"
  type: "BatchNorm"
  bottom: "conv_123"
  top: "norm_123"
  batch_norm_param {
  }
}
layer {
  name: "relu_123"
  type: "ReLU"
  bottom: "norm_123"
  top: "relu_123"
}
layer {
  name: "conv_124"
  type: "Convolution"
  bottom: "relu_123"
  top: "conv_124"
  param {
    lr_mult: 1.0
    decay_mult: 1.0
  }
  param {
    lr_mult: 1.0
    decay_mult: 1.0
  }
  convolution_param {
    num_output: 32
    pad: 1
    kernel_size: 3
    stride: 1
    weight_filler {
      type: "gaussian"
      std: 0.0833333358169
    }
    bias_filler {
      type: "constant"
      value: 0.0
    }
  }
}
layer {
  name: "norm_124"
  type: "BatchNorm"
  bottom: "conv_124"
  top: "norm_124"
  batch_norm_param {
  }
}
layer {
  name: "elem_124"
  type: "Eltwise"
  bottom: "norm_124"
  bottom: "relu_122"
  top: "elem_124"
  eltwise_param {
    operation: SUM
  }
}
layer {
  name: "relu_124"
  type: "ReLU"
  bottom: "elem_124"
  top: "relu_124"
}
layer {
  name: "conv_125"
  type: "Convolution"
  bottom: "relu_124"
  top: "conv_125"
  param {
    lr_mult: 1.0
    decay_mult: 1.0
  }
  param {
    lr_mult: 1.0
    decay_mult: 1.0
  }
  convolution_param {
    num_output: 32
    pad: 1
    kernel_size: 3
    stride: 1
    weight_filler {
      type: "gaussian"
      std: 0.0833333358169
    }
    bias_filler {
      type: "constant"
      value: 0.0
    }
  }
}
layer {
  name: "norm_125"
  type: "BatchNorm"
  bottom: "conv_125"
  top: "norm_125"
  batch_norm_param {
  }
}
layer {
  name: "relu_125"
  type: "ReLU"
  bottom: "norm_125"
  top: "relu_125"
}
layer {
  name: "conv_126"
  type: "Convolution"
  bottom: "relu_125"
  top: "conv_126"
  param {
    lr_mult: 1.0
    decay_mult: 1.0
  }
  param {
    lr_mult: 1.0
    decay_mult: 1.0
  }
  convolution_param {
    num_output: 32
    pad: 1
    kernel_size: 3
    stride: 1
    weight_filler {
      type: "gaussian"
      std: 0.0833333358169
    }
    bias_filler {
      type: "constant"
      value: 0.0
    }
  }
}
layer {
  name: "norm_126"
  type: "BatchNorm"
  bottom: "conv_126"
  top: "norm_126"
  batch_norm_param {
  }
}
layer {
  name: "elem_126"
  type: "Eltwise"
  bottom: "norm_126"
  bottom: "relu_124"
  top: "elem_126"
  eltwise_param {
    operation: SUM
  }
}
layer {
  name: "relu_126"
  type: "ReLU"
  bottom: "elem_126"
  top: "relu_126"
}
layer {
  name: "conv_127"
  type: "Convolution"
  bottom: "relu_126"
  top: "conv_127"
  param {
    lr_mult: 1.0
    decay_mult: 1.0
  }
  param {
    lr_mult: 1.0
    decay_mult: 1.0
  }
  convolution_param {
    num_output: 32
    pad: 1
    kernel_size: 3
    stride: 1
    weight_filler {
      type: "gaussian"
      std: 0.0833333358169
    }
    bias_filler {
      type: "constant"
      value: 0.0
    }
  }
}
layer {
  name: "norm_127"
  type: "BatchNorm"
  bottom: "conv_127"
  top: "norm_127"
  batch_norm_param {
  }
}
layer {
  name: "relu_127"
  type: "ReLU"
  bottom: "norm_127"
  top: "relu_127"
}
layer {
  name: "conv_128"
  type: "Convolution"
  bottom: "relu_127"
  top: "conv_128"
  param {
    lr_mult: 1.0
    decay_mult: 1.0
  }
  param {
    lr_mult: 1.0
    decay_mult: 1.0
  }
  convolution_param {
    num_output: 32
    pad: 1
    kernel_size: 3
    stride: 1
    weight_filler {
      type: "gaussian"
      std: 0.0833333358169
    }
    bias_filler {
      type: "constant"
      value: 0.0
    }
  }
}
layer {
  name: "norm_128"
  type: "BatchNorm"
  bottom: "conv_128"
  top: "norm_128"
  batch_norm_param {
  }
}
layer {
  name: "elem_128"
  type: "Eltwise"
  bottom: "norm_128"
  bottom: "relu_126"
  top: "elem_128"
  eltwise_param {
    operation: SUM
  }
}
layer {
  name: "relu_128"
  type: "ReLU"
  bottom: "elem_128"
  top: "relu_128"
}
layer {
  name: "conv_129"
  type: "Convolution"
  bottom: "relu_128"
  top: "conv_129"
  param {
    lr_mult: 1.0
    decay_mult: 1.0
  }
  param {
    lr_mult: 1.0
    decay_mult: 1.0
  }
  convolution_param {
    num_output: 64
    pad: 1
    kernel_size: 3
    stride: 1
    weight_filler {
      type: "gaussian"
      std: 0.0833333358169
    }
    bias_filler {
      type: "constant"
      value: 0.0
    }
  }
}
layer {
  name: "norm_129"
  type: "BatchNorm"
  bottom: "conv_129"
  top: "norm_129"
  batch_norm_param {
  }
}
layer {
  name: "relu_129"
  type: "ReLU"
  bottom: "norm_129"
  top: "relu_129"
}
layer {
  name: "conv_130"
  type: "Convolution"
  bottom: "relu_129"
  top: "conv_130"
  param {
    lr_mult: 1.0
    decay_mult: 1.0
  }
  param {
    lr_mult: 1.0
    decay_mult: 1.0
  }
  convolution_param {
    num_output: 64
    pad: 1
    kernel_size: 3
    stride: 1
    weight_filler {
      type: "gaussian"
      std: 0.0589255653322
    }
    bias_filler {
      type: "constant"
      value: 0.0
    }
  }
}
layer {
  name: "norm_130"
  type: "BatchNorm"
  bottom: "conv_130"
  top: "norm_130"
  batch_norm_param {
  }
}
layer {
  name: "elem_130"
  type: "Eltwise"
  bottom: "norm_130"
  bottom: "relu_128"
  top: "elem_130"
  eltwise_param {
    operation: SUM
  }
}
layer {
  name: "relu_130"
  type: "ReLU"
  bottom: "elem_130"
  top: "relu_130"
}
layer {
  name: "conv_131"
  type: "Convolution"
  bottom: "relu_130"
  top: "conv_131"
  param {
    lr_mult: 1.0
    decay_mult: 1.0
  }
  param {
    lr_mult: 1.0
    decay_mult: 1.0
  }
  convolution_param {
    num_output: 64
    pad: 1
    kernel_size: 3
    stride: 1
    weight_filler {
      type: "gaussian"
      std: 0.0589255653322
    }
    bias_filler {
      type: "constant"
      value: 0.0
    }
  }
}
layer {
  name: "norm_131"
  type: "BatchNorm"
  bottom: "conv_131"
  top: "norm_131"
  batch_norm_param {
  }
}
layer {
  name: "relu_131"
  type: "ReLU"
  bottom: "norm_131"
  top: "relu_131"
}
layer {
  name: "conv_132"
  type: "Convolution"
  bottom: "relu_131"
  top: "conv_132"
  param {
    lr_mult: 1.0
    decay_mult: 1.0
  }
  param {
    lr_mult: 1.0
    decay_mult: 1.0
  }
  convolution_param {
    num_output: 64
    pad: 1
    kernel_size: 3
    stride: 1
    weight_filler {
      type: "gaussian"
      std: 0.0589255653322
    }
    bias_filler {
      type: "constant"
      value: 0.0
    }
  }
}
layer {
  name: "norm_132"
  type: "BatchNorm"
  bottom: "conv_132"
  top: "norm_132"
  batch_norm_param {
  }
}
layer {
  name: "elem_132"
  type: "Eltwise"
  bottom: "norm_132"
  bottom: "relu_130"
  top: "elem_132"
  eltwise_param {
    operation: SUM
  }
}
layer {
  name: "relu_132"
  type: "ReLU"
  bottom: "elem_132"
  top: "relu_132"
}
layer {
  name: "conv_133"
  type: "Convolution"
  bottom: "relu_132"
  top: "conv_133"
  param {
    lr_mult: 1.0
    decay_mult: 1.0
  }
  param {
    lr_mult: 1.0
    decay_mult: 1.0
  }
  convolution_param {
    num_output: 64
    pad: 1
    kernel_size: 3
    stride: 1
    weight_filler {
      type: "gaussian"
      std: 0.0589255653322
    }
    bias_filler {
      type: "constant"
      value: 0.0
    }
  }
}
layer {
  name: "norm_133"
  type: "BatchNorm"
  bottom: "conv_133"
  top: "norm_133"
  batch_norm_param {
  }
}
layer {
  name: "relu_133"
  type: "ReLU"
  bottom: "norm_133"
  top: "relu_133"
}
layer {
  name: "conv_134"
  type: "Convolution"
  bottom: "relu_133"
  top: "conv_134"
  param {
    lr_mult: 1.0
    decay_mult: 1.0
  }
  param {
    lr_mult: 1.0
    decay_mult: 1.0
  }
  convolution_param {
    num_output: 64
    pad: 1
    kernel_size: 3
    stride: 1
    weight_filler {
      type: "gaussian"
      std: 0.0589255653322
    }
    bias_filler {
      type: "constant"
      value: 0.0
    }
  }
}
layer {
  name: "norm_134"
  type: "BatchNorm"
  bottom: "conv_134"
  top: "norm_134"
  batch_norm_param {
  }
}
layer {
  name: "elem_134"
  type: "Eltwise"
  bottom: "norm_134"
  bottom: "relu_132"
  top: "elem_134"
  eltwise_param {
    operation: SUM
  }
}
layer {
  name: "relu_134"
  type: "ReLU"
  bottom: "elem_134"
  top: "relu_134"
}
layer {
  name: "conv_135"
  type: "Convolution"
  bottom: "relu_134"
  top: "conv_135"
  param {
    lr_mult: 1.0
    decay_mult: 1.0
  }
  param {
    lr_mult: 1.0
    decay_mult: 1.0
  }
  convolution_param {
    num_output: 64
    pad: 1
    kernel_size: 3
    stride: 1
    weight_filler {
      type: "gaussian"
      std: 0.0589255653322
    }
    bias_filler {
      type: "constant"
      value: 0.0
    }
  }
}
layer {
  name: "norm_135"
  type: "BatchNorm"
  bottom: "conv_135"
  top: "norm_135"
  batch_norm_param {
  }
}
layer {
  name: "relu_135"
  type: "ReLU"
  bottom: "norm_135"
  top: "relu_135"
}
layer {
  name: "conv_136"
  type: "Convolution"
  bottom: "relu_135"
  top: "conv_136"
  param {
    lr_mult: 1.0
    decay_mult: 1.0
  }
  param {
    lr_mult: 1.0
    decay_mult: 1.0
  }
  convolution_param {
    num_output: 64
    pad: 1
    kernel_size: 3
    stride: 1
    weight_filler {
      type: "gaussian"
      std: 0.0589255653322
    }
    bias_filler {
      type: "constant"
      value: 0.0
    }
  }
}
layer {
  name: "norm_136"
  type: "BatchNorm"
  bottom: "conv_136"
  top: "norm_136"
  batch_norm_param {
  }
}
layer {
  name: "elem_136"
  type: "Eltwise"
  bottom: "norm_136"
  bottom: "relu_134"
  top: "elem_136"
  eltwise_param {
    operation: SUM
  }
}
layer {
  name: "relu_136"
  type: "ReLU"
  bottom: "elem_136"
  top: "relu_136"
}
layer {
  name: "conv_137"
  type: "Convolution"
  bottom: "relu_136"
  top: "conv_137"
  param {
    lr_mult: 1.0
    decay_mult: 1.0
  }
  param {
    lr_mult: 1.0
    decay_mult: 1.0
  }
  convolution_param {
    num_output: 64
    pad: 1
    kernel_size: 3
    stride: 1
    weight_filler {
      type: "gaussian"
      std: 0.0589255653322
    }
    bias_filler {
      type: "constant"
      value: 0.0
    }
  }
}
layer {
  name: "norm_137"
  type: "BatchNorm"
  bottom: "conv_137"
  top: "norm_137"
  batch_norm_param {
  }
}
layer {
  name: "relu_137"
  type: "ReLU"
  bottom: "norm_137"
  top: "relu_137"
}
layer {
  name: "conv_138"
  type: "Convolution"
  bottom: "relu_137"
  top: "conv_138"
  param {
    lr_mult: 1.0
    decay_mult: 1.0
  }
  param {
    lr_mult: 1.0
    decay_mult: 1.0
  }
  convolution_param {
    num_output: 64
    pad: 1
    kernel_size: 3
    stride: 1
    weight_filler {
      type: "gaussian"
      std: 0.0589255653322
    }
    bias_filler {
      type: "constant"
      value: 0.0
    }
  }
}
layer {
  name: "norm_138"
  type: "BatchNorm"
  bottom: "conv_138"
  top: "norm_138"
  batch_norm_param {
  }
}
layer {
  name: "elem_138"
  type: "Eltwise"
  bottom: "norm_138"
  bottom: "relu_136"
  top: "elem_138"
  eltwise_param {
    operation: SUM
  }
}
layer {
  name: "relu_138"
  type: "ReLU"
  bottom: "elem_138"
  top: "relu_138"
}
layer {
  name: "conv_139"
  type: "Convolution"
  bottom: "relu_138"
  top: "conv_139"
  param {
    lr_mult: 1.0
    decay_mult: 1.0
  }
  param {
    lr_mult: 1.0
    decay_mult: 1.0
  }
  convolution_param {
    num_output: 64
    pad: 1
    kernel_size: 3
    stride: 1
    weight_filler {
      type: "gaussian"
      std: 0.0589255653322
    }
    bias_filler {
      type: "constant"
      value: 0.0
    }
  }
}
layer {
  name: "norm_139"
  type: "BatchNorm"
  bottom: "conv_139"
  top: "norm_139"
  batch_norm_param {
  }
}
layer {
  name: "relu_139"
  type: "ReLU"
  bottom: "norm_139"
  top: "relu_139"
}
layer {
  name: "conv_140"
  type: "Convolution"
  bottom: "relu_139"
  top: "conv_140"
  param {
    lr_mult: 1.0
    decay_mult: 1.0
  }
  param {
    lr_mult: 1.0
    decay_mult: 1.0
  }
  convolution_param {
    num_output: 64
    pad: 1
    kernel_size: 3
    stride: 1
    weight_filler {
      type: "gaussian"
      std: 0.0589255653322
    }
    bias_filler {
      type: "constant"
      value: 0.0
    }
  }
}
layer {
  name: "norm_140"
  type: "BatchNorm"
  bottom: "conv_140"
  top: "norm_140"
  batch_norm_param {
  }
}
layer {
  name: "elem_140"
  type: "Eltwise"
  bottom: "norm_140"
  bottom: "relu_138"
  top: "elem_140"
  eltwise_param {
    operation: SUM
  }
}
layer {
  name: "relu_140"
  type: "ReLU"
  bottom: "elem_140"
  top: "relu_140"
}
layer {
  name: "conv_141"
  type: "Convolution"
  bottom: "relu_140"
  top: "conv_141"
  param {
    lr_mult: 1.0
    decay_mult: 1.0
  }
  param {
    lr_mult: 1.0
    decay_mult: 1.0
  }
  convolution_param {
    num_output: 64
    pad: 1
    kernel_size: 3
    stride: 1
    weight_filler {
      type: "gaussian"
      std: 0.0589255653322
    }
    bias_filler {
      type: "constant"
      value: 0.0
    }
  }
}
layer {
  name: "norm_141"
  type: "BatchNorm"
  bottom: "conv_141"
  top: "norm_141"
  batch_norm_param {
  }
}
layer {
  name: "relu_141"
  type: "ReLU"
  bottom: "norm_141"
  top: "relu_141"
}
layer {
  name: "conv_142"
  type: "Convolution"
  bottom: "relu_141"
  top: "conv_142"
  param {
    lr_mult: 1.0
    decay_mult: 1.0
  }
  param {
    lr_mult: 1.0
    decay_mult: 1.0
  }
  convolution_param {
    num_output: 64
    pad: 1
    kernel_size: 3
    stride: 1
    weight_filler {
      type: "gaussian"
      std: 0.0589255653322
    }
    bias_filler {
      type: "constant"
      value: 0.0
    }
  }
}
layer {
  name: "norm_142"
  type: "BatchNorm"
  bottom: "conv_142"
  top: "norm_142"
  batch_norm_param {
  }
}
layer {
  name: "elem_142"
  type: "Eltwise"
  bottom: "norm_142"
  bottom: "relu_140"
  top: "elem_142"
  eltwise_param {
    operation: SUM
  }
}
layer {
  name: "relu_142"
  type: "ReLU"
  bottom: "elem_142"
  top: "relu_142"
}
layer {
  name: "conv_143"
  type: "Convolution"
  bottom: "relu_142"
  top: "conv_143"
  param {
    lr_mult: 1.0
    decay_mult: 1.0
  }
  param {
    lr_mult: 1.0
    decay_mult: 1.0
  }
  convolution_param {
    num_output: 64
    pad: 1
    kernel_size: 3
    stride: 1
    weight_filler {
      type: "gaussian"
      std: 0.0589255653322
    }
    bias_filler {
      type: "constant"
      value: 0.0
    }
  }
}
layer {
  name: "norm_143"
  type: "BatchNorm"
  bottom: "conv_143"
  top: "norm_143"
  batch_norm_param {
  }
}
layer {
  name: "relu_143"
  type: "ReLU"
  bottom: "norm_143"
  top: "relu_143"
}
layer {
  name: "conv_144"
  type: "Convolution"
  bottom: "relu_143"
  top: "conv_144"
  param {
    lr_mult: 1.0
    decay_mult: 1.0
  }
  param {
    lr_mult: 1.0
    decay_mult: 1.0
  }
  convolution_param {
    num_output: 64
    pad: 1
    kernel_size: 3
    stride: 1
    weight_filler {
      type: "gaussian"
      std: 0.0589255653322
    }
    bias_filler {
      type: "constant"
      value: 0.0
    }
  }
}
layer {
  name: "norm_144"
  type: "BatchNorm"
  bottom: "conv_144"
  top: "norm_144"
  batch_norm_param {
  }
}
layer {
  name: "elem_144"
  type: "Eltwise"
  bottom: "norm_144"
  bottom: "relu_142"
  top: "elem_144"
  eltwise_param {
    operation: SUM
  }
}
layer {
  name: "relu_144"
  type: "ReLU"
  bottom: "elem_144"
  top: "relu_144"
}
layer {
  name: "conv_145"
  type: "Convolution"
  bottom: "relu_144"
  top: "conv_145"
  param {
    lr_mult: 1.0
    decay_mult: 1.0
  }
  param {
    lr_mult: 1.0
    decay_mult: 1.0
  }
  convolution_param {
    num_output: 64
    pad: 1
    kernel_size: 3
    stride: 1
    weight_filler {
      type: "gaussian"
      std: 0.0589255653322
    }
    bias_filler {
      type: "constant"
      value: 0.0
    }
  }
}
layer {
  name: "norm_145"
  type: "BatchNorm"
  bottom: "conv_145"
  top: "norm_145"
  batch_norm_param {
  }
}
layer {
  name: "relu_145"
  type: "ReLU"
  bottom: "norm_145"
  top: "relu_145"
}
layer {
  name: "conv_146"
  type: "Convolution"
  bottom: "relu_145"
  top: "conv_146"
  param {
    lr_mult: 1.0
    decay_mult: 1.0
  }
  param {
    lr_mult: 1.0
    decay_mult: 1.0
  }
  convolution_param {
    num_output: 64
    pad: 1
    kernel_size: 3
    stride: 1
    weight_filler {
      type: "gaussian"
      std: 0.0589255653322
    }
    bias_filler {
      type: "constant"
      value: 0.0
    }
  }
}
layer {
  name: "norm_146"
  type: "BatchNorm"
  bottom: "conv_146"
  top: "norm_146"
  batch_norm_param {
  }
}
layer {
  name: "elem_146"
  type: "Eltwise"
  bottom: "norm_146"
  bottom: "relu_144"
  top: "elem_146"
  eltwise_param {
    operation: SUM
  }
}
layer {
  name: "relu_146"
  type: "ReLU"
  bottom: "elem_146"
  top: "relu_146"
}
layer {
  name: "conv_147"
  type: "Convolution"
  bottom: "relu_146"
  top: "conv_147"
  param {
    lr_mult: 1.0
    decay_mult: 1.0
  }
  param {
    lr_mult: 1.0
    decay_mult: 1.0
  }
  convolution_param {
    num_output: 128
    pad: 1
    kernel_size: 3
    stride: 1
    weight_filler {
      type: "gaussian"
      std: 0.0589255653322
    }
    bias_filler {
      type: "constant"
      value: 0.0
    }
  }
}
layer {
  name: "norm_147"
  type: "BatchNorm"
  bottom: "conv_147"
  top: "norm_147"
  batch_norm_param {
  }
}
layer {
  name: "relu_147"
  type: "ReLU"
  bottom: "norm_147"
  top: "relu_147"
}
layer {
  name: "conv_148"
  type: "Convolution"
  bottom: "relu_147"
  top: "conv_148"
  param {
    lr_mult: 1.0
    decay_mult: 1.0
  }
  param {
    lr_mult: 1.0
    decay_mult: 1.0
  }
  convolution_param {
    num_output: 128
    pad: 1
    kernel_size: 3
    stride: 1
    weight_filler {
      type: "gaussian"
      std: 0.0416666679084
    }
    bias_filler {
      type: "constant"
      value: 0.0
    }
  }
}
layer {
  name: "norm_148"
  type: "BatchNorm"
  bottom: "conv_148"
  top: "norm_148"
  batch_norm_param {
  }
}
layer {
  name: "elem_148"
  type: "Eltwise"
  bottom: "norm_148"
  bottom: "relu_146"
  top: "elem_148"
  eltwise_param {
    operation: SUM
  }
}
layer {
  name: "relu_148"
  type: "ReLU"
  bottom: "elem_148"
  top: "relu_148"
}
layer {
  name: "conv_149"
  type: "Convolution"
  bottom: "relu_148"
  top: "conv_149"
  param {
    lr_mult: 1.0
    decay_mult: 1.0
  }
  param {
    lr_mult: 1.0
    decay_mult: 1.0
  }
  convolution_param {
    num_output: 128
    pad: 1
    kernel_size: 3
    stride: 1
    weight_filler {
      type: "gaussian"
      std: 0.0416666679084
    }
    bias_filler {
      type: "constant"
      value: 0.0
    }
  }
}
layer {
  name: "norm_149"
  type: "BatchNorm"
  bottom: "conv_149"
  top: "norm_149"
  batch_norm_param {
  }
}
layer {
  name: "relu_149"
  type: "ReLU"
  bottom: "norm_149"
  top: "relu_149"
}
layer {
  name: "conv_150"
  type: "Convolution"
  bottom: "relu_149"
  top: "conv_150"
  param {
    lr_mult: 1.0
    decay_mult: 1.0
  }
  param {
    lr_mult: 1.0
    decay_mult: 1.0
  }
  convolution_param {
    num_output: 128
    pad: 1
    kernel_size: 3
    stride: 1
    weight_filler {
      type: "gaussian"
      std: 0.0416666679084
    }
    bias_filler {
      type: "constant"
      value: 0.0
    }
  }
}
layer {
  name: "norm_150"
  type: "BatchNorm"
  bottom: "conv_150"
  top: "norm_150"
  batch_norm_param {
  }
}
layer {
  name: "elem_150"
  type: "Eltwise"
  bottom: "norm_150"
  bottom: "relu_148"
  top: "elem_150"
  eltwise_param {
    operation: SUM
  }
}
layer {
  name: "relu_150"
  type: "ReLU"
  bottom: "elem_150"
  top: "relu_150"
}
layer {
  name: "conv_151"
  type: "Convolution"
  bottom: "relu_150"
  top: "conv_151"
  param {
    lr_mult: 1.0
    decay_mult: 1.0
  }
  param {
    lr_mult: 1.0
    decay_mult: 1.0
  }
  convolution_param {
    num_output: 128
    pad: 1
    kernel_size: 3
    stride: 1
    weight_filler {
      type: "gaussian"
      std: 0.0416666679084
    }
    bias_filler {
      type: "constant"
      value: 0.0
    }
  }
}
layer {
  name: "norm_151"
  type: "BatchNorm"
  bottom: "conv_151"
  top: "norm_151"
  batch_norm_param {
  }
}
layer {
  name: "relu_151"
  type: "ReLU"
  bottom: "norm_151"
  top: "relu_151"
}
layer {
  name: "conv_152"
  type: "Convolution"
  bottom: "relu_151"
  top: "conv_152"
  param {
    lr_mult: 1.0
    decay_mult: 1.0
  }
  param {
    lr_mult: 1.0
    decay_mult: 1.0
  }
  convolution_param {
    num_output: 128
    pad: 1
    kernel_size: 3
    stride: 1
    weight_filler {
      type: "gaussian"
      std: 0.0416666679084
    }
    bias_filler {
      type: "constant"
      value: 0.0
    }
  }
}
layer {
  name: "norm_152"
  type: "BatchNorm"
  bottom: "conv_152"
  top: "norm_152"
  batch_norm_param {
  }
}
layer {
  name: "elem_152"
  type: "Eltwise"
  bottom: "norm_152"
  bottom: "relu_150"
  top: "elem_152"
  eltwise_param {
    operation: SUM
  }
}
layer {
  name: "relu_152"
  type: "ReLU"
  bottom: "elem_152"
  top: "relu_152"
}
layer {
  name: "conv_153"
  type: "Convolution"
  bottom: "relu_152"
  top: "conv_153"
  param {
    lr_mult: 1.0
    decay_mult: 1.0
  }
  param {
    lr_mult: 1.0
    decay_mult: 1.0
  }
  convolution_param {
    num_output: 128
    pad: 1
    kernel_size: 3
    stride: 1
    weight_filler {
      type: "gaussian"
      std: 0.0416666679084
    }
    bias_filler {
      type: "constant"
      value: 0.0
    }
  }
}
layer {
  name: "norm_153"
  type: "BatchNorm"
  bottom: "conv_153"
  top: "norm_153"
  batch_norm_param {
  }
}
layer {
  name: "relu_153"
  type: "ReLU"
  bottom: "norm_153"
  top: "relu_153"
}
layer {
  name: "conv_154"
  type: "Convolution"
  bottom: "relu_153"
  top: "conv_154"
  param {
    lr_mult: 1.0
    decay_mult: 1.0
  }
  param {
    lr_mult: 1.0
    decay_mult: 1.0
  }
  convolution_param {
    num_output: 128
    pad: 1
    kernel_size: 3
    stride: 1
    weight_filler {
      type: "gaussian"
      std: 0.0416666679084
    }
    bias_filler {
      type: "constant"
      value: 0.0
    }
  }
}
layer {
  name: "norm_154"
  type: "BatchNorm"
  bottom: "conv_154"
  top: "norm_154"
  batch_norm_param {
  }
}
layer {
  name: "elem_154"
  type: "Eltwise"
  bottom: "norm_154"
  bottom: "relu_152"
  top: "elem_154"
  eltwise_param {
    operation: SUM
  }
}
layer {
  name: "relu_154"
  type: "ReLU"
  bottom: "elem_154"
  top: "relu_154"
}
layer {
  name: "conv_155"
  type: "Convolution"
  bottom: "relu_154"
  top: "conv_155"
  param {
    lr_mult: 1.0
    decay_mult: 1.0
  }
  param {
    lr_mult: 1.0
    decay_mult: 1.0
  }
  convolution_param {
    num_output: 128
    pad: 1
    kernel_size: 3
    stride: 1
    weight_filler {
      type: "gaussian"
      std: 0.0416666679084
    }
    bias_filler {
      type: "constant"
      value: 0.0
    }
  }
}
layer {
  name: "norm_155"
  type: "BatchNorm"
  bottom: "conv_155"
  top: "norm_155"
  batch_norm_param {
  }
}
layer {
  name: "relu_155"
  type: "ReLU"
  bottom: "norm_155"
  top: "relu_155"
}
layer {
  name: "conv_156"
  type: "Convolution"
  bottom: "relu_155"
  top: "conv_156"
  param {
    lr_mult: 1.0
    decay_mult: 1.0
  }
  param {
    lr_mult: 1.0
    decay_mult: 1.0
  }
  convolution_param {
    num_output: 128
    pad: 1
    kernel_size: 3
    stride: 1
    weight_filler {
      type: "gaussian"
      std: 0.0416666679084
    }
    bias_filler {
      type: "constant"
      value: 0.0
    }
  }
}
layer {
  name: "norm_156"
  type: "BatchNorm"
  bottom: "conv_156"
  top: "norm_156"
  batch_norm_param {
  }
}
layer {
  name: "elem_156"
  type: "Eltwise"
  bottom: "norm_156"
  bottom: "relu_154"
  top: "elem_156"
  eltwise_param {
    operation: SUM
  }
}
layer {
  name: "relu_156"
  type: "ReLU"
  bottom: "elem_156"
  top: "relu_156"
}
layer {
  name: "conv_157"
  type: "Convolution"
  bottom: "relu_156"
  top: "conv_157"
  param {
    lr_mult: 1.0
    decay_mult: 1.0
  }
  param {
    lr_mult: 1.0
    decay_mult: 1.0
  }
  convolution_param {
    num_output: 128
    pad: 1
    kernel_size: 3
    stride: 1
    weight_filler {
      type: "gaussian"
      std: 0.0416666679084
    }
    bias_filler {
      type: "constant"
      value: 0.0
    }
  }
}
layer {
  name: "norm_157"
  type: "BatchNorm"
  bottom: "conv_157"
  top: "norm_157"
  batch_norm_param {
  }
}
layer {
  name: "relu_157"
  type: "ReLU"
  bottom: "norm_157"
  top: "relu_157"
}
layer {
  name: "conv_158"
  type: "Convolution"
  bottom: "relu_157"
  top: "conv_158"
  param {
    lr_mult: 1.0
    decay_mult: 1.0
  }
  param {
    lr_mult: 1.0
    decay_mult: 1.0
  }
  convolution_param {
    num_output: 128
    pad: 1
    kernel_size: 3
    stride: 1
    weight_filler {
      type: "gaussian"
      std: 0.0416666679084
    }
    bias_filler {
      type: "constant"
      value: 0.0
    }
  }
}
layer {
  name: "norm_158"
  type: "BatchNorm"
  bottom: "conv_158"
  top: "norm_158"
  batch_norm_param {
  }
}
layer {
  name: "elem_158"
  type: "Eltwise"
  bottom: "norm_158"
  bottom: "relu_156"
  top: "elem_158"
  eltwise_param {
    operation: SUM
  }
}
layer {
  name: "relu_158"
  type: "ReLU"
  bottom: "elem_158"
  top: "relu_158"
}
layer {
  name: "conv_159"
  type: "Convolution"
  bottom: "relu_158"
  top: "conv_159"
  param {
    lr_mult: 1.0
    decay_mult: 1.0
  }
  param {
    lr_mult: 1.0
    decay_mult: 1.0
  }
  convolution_param {
    num_output: 128
    pad: 1
    kernel_size: 3
    stride: 1
    weight_filler {
      type: "gaussian"
      std: 0.0416666679084
    }
    bias_filler {
      type: "constant"
      value: 0.0
    }
  }
}
layer {
  name: "norm_159"
  type: "BatchNorm"
  bottom: "conv_159"
  top: "norm_159"
  batch_norm_param {
  }
}
layer {
  name: "relu_159"
  type: "ReLU"
  bottom: "norm_159"
  top: "relu_159"
}
layer {
  name: "conv_160"
  type: "Convolution"
  bottom: "relu_159"
  top: "conv_160"
  param {
    lr_mult: 1.0
    decay_mult: 1.0
  }
  param {
    lr_mult: 1.0
    decay_mult: 1.0
  }
  convolution_param {
    num_output: 128
    pad: 1
    kernel_size: 3
    stride: 1
    weight_filler {
      type: "gaussian"
      std: 0.0416666679084
    }
    bias_filler {
      type: "constant"
      value: 0.0
    }
  }
}
layer {
  name: "norm_160"
  type: "BatchNorm"
  bottom: "conv_160"
  top: "norm_160"
  batch_norm_param {
  }
}
layer {
  name: "elem_160"
  type: "Eltwise"
  bottom: "norm_160"
  bottom: "relu_158"
  top: "elem_160"
  eltwise_param {
    operation: SUM
  }
}
layer {
  name: "relu_160"
  type: "ReLU"
  bottom: "elem_160"
  top: "relu_160"
}
layer {
  name: "conv_161"
  type: "Convolution"
  bottom: "relu_160"
  top: "conv_161"
  param {
    lr_mult: 1.0
    decay_mult: 1.0
  }
  param {
    lr_mult: 1.0
    decay_mult: 1.0
  }
  convolution_param {
    num_output: 128
    pad: 1
    kernel_size: 3
    stride: 1
    weight_filler {
      type: "gaussian"
      std: 0.0416666679084
    }
    bias_filler {
      type: "constant"
      value: 0.0
    }
  }
}
layer {
  name: "norm_161"
  type: "BatchNorm"
  bottom: "conv_161"
  top: "norm_161"
  batch_norm_param {
  }
}
layer {
  name: "relu_161"
  type: "ReLU"
  bottom: "norm_161"
  top: "relu_161"
}
layer {
  name: "conv_162"
  type: "Convolution"
  bottom: "relu_161"
  top: "conv_162"
  param {
    lr_mult: 1.0
    decay_mult: 1.0
  }
  param {
    lr_mult: 1.0
    decay_mult: 1.0
  }
  convolution_param {
    num_output: 128
    pad: 1
    kernel_size: 3
    stride: 1
    weight_filler {
      type: "gaussian"
      std: 0.0416666679084
    }
    bias_filler {
      type: "constant"
      value: 0.0
    }
  }
}
layer {
  name: "norm_162"
  type: "BatchNorm"
  bottom: "conv_162"
  top: "norm_162"
  batch_norm_param {
  }
}
layer {
  name: "elem_162"
  type: "Eltwise"
  bottom: "norm_162"
  bottom: "relu_160"
  top: "elem_162"
  eltwise_param {
    operation: SUM
  }
}
layer {
  name: "relu_162"
  type: "ReLU"
  bottom: "elem_162"
  top: "relu_162"
}
layer {
  name: "conv_163"
  type: "Convolution"
  bottom: "relu_162"
  top: "conv_163"
  param {
    lr_mult: 1.0
    decay_mult: 1.0
  }
  param {
    lr_mult: 1.0
    decay_mult: 1.0
  }
  convolution_param {
    num_output: 128
    pad: 1
    kernel_size: 3
    stride: 1
    weight_filler {
      type: "gaussian"
      std: 0.0416666679084
    }
    bias_filler {
      type: "constant"
      value: 0.0
    }
  }
}
layer {
  name: "norm_163"
  type: "BatchNorm"
  bottom: "conv_163"
  top: "norm_163"
  batch_norm_param {
  }
}
layer {
  name: "relu_163"
  type: "ReLU"
  bottom: "norm_163"
  top: "relu_163"
}
layer {
  name: "conv_164"
  type: "Convolution"
  bottom: "relu_163"
  top: "conv_164"
  param {
    lr_mult: 1.0
    decay_mult: 1.0
  }
  param {
    lr_mult: 1.0
    decay_mult: 1.0
  }
  convolution_param {
    num_output: 128
    pad: 1
    kernel_size: 3
    stride: 1
    weight_filler {
      type: "gaussian"
      std: 0.0416666679084
    }
    bias_filler {
      type: "constant"
      value: 0.0
    }
  }
}
layer {
  name: "norm_164"
  type: "BatchNorm"
  bottom: "conv_164"
  top: "norm_164"
  batch_norm_param {
  }
}
layer {
  name: "elem_164"
  type: "Eltwise"
  bottom: "norm_164"
  bottom: "relu_162"
  top: "elem_164"
  eltwise_param {
    operation: SUM
  }
}
layer {
  name: "relu_164"
  type: "ReLU"
  bottom: "elem_164"
  top: "relu_164"
}
layer {
  name: "conv_165"
  type: "Convolution"
  bottom: "relu_164"
  top: "conv_165"
  param {
    lr_mult: 1.0
    decay_mult: 1.0
  }
  param {
    lr_mult: 1.0
    decay_mult: 1.0
  }
  convolution_param {
    num_output: 256
    pad: 1
    kernel_size: 3
    stride: 1
    weight_filler {
      type: "gaussian"
      std: 0.0416666679084
    }
    bias_filler {
      type: "constant"
      value: 0.0
    }
  }
}
layer {
  name: "norm_165"
  type: "BatchNorm"
  bottom: "conv_165"
  top: "norm_165"
  batch_norm_param {
  }
}
layer {
  name: "relu_165"
  type: "ReLU"
  bottom: "norm_165"
  top: "relu_165"
}
layer {
  name: "conv_166"
  type: "Convolution"
  bottom: "relu_165"
  top: "conv_166"
  param {
    lr_mult: 1.0
    decay_mult: 1.0
  }
  param {
    lr_mult: 1.0
    decay_mult: 1.0
  }
  convolution_param {
    num_output: 256
    pad: 1
    kernel_size: 3
    stride: 1
    weight_filler {
      type: "gaussian"
      std: 0.0294627826661
    }
    bias_filler {
      type: "constant"
      value: 0.0
    }
  }
}
layer {
  name: "norm_166"
  type: "BatchNorm"
  bottom: "conv_166"
  top: "norm_166"
  batch_norm_param {
  }
}
layer {
  name: "elem_166"
  type: "Eltwise"
  bottom: "norm_166"
  bottom: "relu_164"
  top: "elem_166"
  eltwise_param {
    operation: SUM
  }
}
layer {
  name: "relu_166"
  type: "ReLU"
  bottom: "elem_166"
  top: "relu_166"
}
layer {
  name: "conv_167"
  type: "Convolution"
  bottom: "relu_166"
  top: "conv_167"
  param {
    lr_mult: 1.0
    decay_mult: 1.0
  }
  param {
    lr_mult: 1.0
    decay_mult: 1.0
  }
  convolution_param {
    num_output: 256
    pad: 1
    kernel_size: 3
    stride: 1
    weight_filler {
      type: "gaussian"
      std: 0.0294627826661
    }
    bias_filler {
      type: "constant"
      value: 0.0
    }
  }
}
layer {
  name: "norm_167"
  type: "BatchNorm"
  bottom: "conv_167"
  top: "norm_167"
  batch_norm_param {
  }
}
layer {
  name: "relu_167"
  type: "ReLU"
  bottom: "norm_167"
  top: "relu_167"
}
layer {
  name: "conv_168"
  type: "Convolution"
  bottom: "relu_167"
  top: "conv_168"
  param {
    lr_mult: 1.0
    decay_mult: 1.0
  }
  param {
    lr_mult: 1.0
    decay_mult: 1.0
  }
  convolution_param {
    num_output: 256
    pad: 1
    kernel_size: 3
    stride: 1
    weight_filler {
      type: "gaussian"
      std: 0.0294627826661
    }
    bias_filler {
      type: "constant"
      value: 0.0
    }
  }
}
layer {
  name: "norm_168"
  type: "BatchNorm"
  bottom: "conv_168"
  top: "norm_168"
  batch_norm_param {
  }
}
layer {
  name: "elem_168"
  type: "Eltwise"
  bottom: "norm_168"
  bottom: "relu_166"
  top: "elem_168"
  eltwise_param {
    operation: SUM
  }
}
layer {
  name: "relu_168"
  type: "ReLU"
  bottom: "elem_168"
  top: "relu_168"
}
layer {
  name: "conv_169"
  type: "Convolution"
  bottom: "relu_168"
  top: "conv_169"
  param {
    lr_mult: 1.0
    decay_mult: 1.0
  }
  param {
    lr_mult: 1.0
    decay_mult: 1.0
  }
  convolution_param {
    num_output: 256
    pad: 1
    kernel_size: 3
    stride: 1
    weight_filler {
      type: "gaussian"
      std: 0.0294627826661
    }
    bias_filler {
      type: "constant"
      value: 0.0
    }
  }
}
layer {
  name: "norm_169"
  type: "BatchNorm"
  bottom: "conv_169"
  top: "norm_169"
  batch_norm_param {
  }
}
layer {
  name: "relu_169"
  type: "ReLU"
  bottom: "norm_169"
  top: "relu_169"
}
layer {
  name: "conv_170"
  type: "Convolution"
  bottom: "relu_169"
  top: "conv_170"
  param {
    lr_mult: 1.0
    decay_mult: 1.0
  }
  param {
    lr_mult: 1.0
    decay_mult: 1.0
  }
  convolution_param {
    num_output: 256
    pad: 1
    kernel_size: 3
    stride: 1
    weight_filler {
      type: "gaussian"
      std: 0.0294627826661
    }
    bias_filler {
      type: "constant"
      value: 0.0
    }
  }
}
layer {
  name: "norm_170"
  type: "BatchNorm"
  bottom: "conv_170"
  top: "norm_170"
  batch_norm_param {
  }
}
layer {
  name: "elem_170"
  type: "Eltwise"
  bottom: "norm_170"
  bottom: "relu_168"
  top: "elem_170"
  eltwise_param {
    operation: SUM
  }
}
layer {
  name: "relu_170"
  type: "ReLU"
  bottom: "elem_170"
  top: "relu_170"
}
layer {
  name: "conv_171"
  type: "Convolution"
  bottom: "relu_170"
  top: "conv_171"
  param {
    lr_mult: 1.0
    decay_mult: 1.0
  }
  param {
    lr_mult: 1.0
    decay_mult: 1.0
  }
  convolution_param {
    num_output: 256
    pad: 1
    kernel_size: 3
    stride: 1
    weight_filler {
      type: "gaussian"
      std: 0.0294627826661
    }
    bias_filler {
      type: "constant"
      value: 0.0
    }
  }
}
layer {
  name: "norm_171"
  type: "BatchNorm"
  bottom: "conv_171"
  top: "norm_171"
  batch_norm_param {
  }
}
layer {
  name: "relu_171"
  type: "ReLU"
  bottom: "norm_171"
  top: "relu_171"
}
layer {
  name: "conv_172"
  type: "Convolution"
  bottom: "relu_171"
  top: "conv_172"
  param {
    lr_mult: 1.0
    decay_mult: 1.0
  }
  param {
    lr_mult: 1.0
    decay_mult: 1.0
  }
  convolution_param {
    num_output: 256
    pad: 1
    kernel_size: 3
    stride: 1
    weight_filler {
      type: "gaussian"
      std: 0.0294627826661
    }
    bias_filler {
      type: "constant"
      value: 0.0
    }
  }
}
layer {
  name: "norm_172"
  type: "BatchNorm"
  bottom: "conv_172"
  top: "norm_172"
  batch_norm_param {
  }
}
layer {
  name: "elem_172"
  type: "Eltwise"
  bottom: "norm_172"
  bottom: "relu_170"
  top: "elem_172"
  eltwise_param {
    operation: SUM
  }
}
layer {
  name: "relu_172"
  type: "ReLU"
  bottom: "elem_172"
  top: "relu_172"
}
layer {
  name: "conv_173"
  type: "Convolution"
  bottom: "relu_172"
  top: "conv_173"
  param {
    lr_mult: 1.0
    decay_mult: 1.0
  }
  param {
    lr_mult: 1.0
    decay_mult: 1.0
  }
  convolution_param {
    num_output: 256
    pad: 1
    kernel_size: 3
    stride: 1
    weight_filler {
      type: "gaussian"
      std: 0.0294627826661
    }
    bias_filler {
      type: "constant"
      value: 0.0
    }
  }
}
layer {
  name: "norm_173"
  type: "BatchNorm"
  bottom: "conv_173"
  top: "norm_173"
  batch_norm_param {
  }
}
layer {
  name: "relu_173"
  type: "ReLU"
  bottom: "norm_173"
  top: "relu_173"
}
layer {
  name: "conv_174"
  type: "Convolution"
  bottom: "relu_173"
  top: "conv_174"
  param {
    lr_mult: 1.0
    decay_mult: 1.0
  }
  param {
    lr_mult: 1.0
    decay_mult: 1.0
  }
  convolution_param {
    num_output: 256
    pad: 1
    kernel_size: 3
    stride: 1
    weight_filler {
      type: "gaussian"
      std: 0.0294627826661
    }
    bias_filler {
      type: "constant"
      value: 0.0
    }
  }
}
layer {
  name: "norm_174"
  type: "BatchNorm"
  bottom: "conv_174"
  top: "norm_174"
  batch_norm_param {
  }
}
layer {
  name: "elem_174"
  type: "Eltwise"
  bottom: "norm_174"
  bottom: "relu_172"
  top: "elem_174"
  eltwise_param {
    operation: SUM
  }
}
layer {
  name: "relu_174"
  type: "ReLU"
  bottom: "elem_174"
  top: "relu_174"
}
layer {
  name: "conv_175"
  type: "Convolution"
  bottom: "relu_174"
  top: "conv_175"
  param {
    lr_mult: 1.0
    decay_mult: 1.0
  }
  param {
    lr_mult: 1.0
    decay_mult: 1.0
  }
  convolution_param {
    num_output: 256
    pad: 1
    kernel_size: 3
    stride: 1
    weight_filler {
      type: "gaussian"
      std: 0.0294627826661
    }
    bias_filler {
      type: "constant"
      value: 0.0
    }
  }
}
layer {
  name: "norm_175"
  type: "BatchNorm"
  bottom: "conv_175"
  top: "norm_175"
  batch_norm_param {
  }
}
layer {
  name: "relu_175"
  type: "ReLU"
  bottom: "norm_175"
  top: "relu_175"
}
layer {
  name: "conv_176"
  type: "Convolution"
  bottom: "relu_175"
  top: "conv_176"
  param {
    lr_mult: 1.0
    decay_mult: 1.0
  }
  param {
    lr_mult: 1.0
    decay_mult: 1.0
  }
  convolution_param {
    num_output: 256
    pad: 1
    kernel_size: 3
    stride: 1
    weight_filler {
      type: "gaussian"
      std: 0.0294627826661
    }
    bias_filler {
      type: "constant"
      value: 0.0
    }
  }
}
layer {
  name: "norm_176"
  type: "BatchNorm"
  bottom: "conv_176"
  top: "norm_176"
  batch_norm_param {
  }
}
layer {
  name: "elem_176"
  type: "Eltwise"
  bottom: "norm_176"
  bottom: "relu_174"
  top: "elem_176"
  eltwise_param {
    operation: SUM
  }
}
layer {
  name: "relu_176"
  type: "ReLU"
  bottom: "elem_176"
  top: "relu_176"
}
layer {
  name: "conv_177"
  type: "Convolution"
  bottom: "relu_176"
  top: "conv_177"
  param {
    lr_mult: 1.0
    decay_mult: 1.0
  }
  param {
    lr_mult: 1.0
    decay_mult: 1.0
  }
  convolution_param {
    num_output: 256
    pad: 1
    kernel_size: 3
    stride: 1
    weight_filler {
      type: "gaussian"
      std: 0.0294627826661
    }
    bias_filler {
      type: "constant"
      value: 0.0
    }
  }
}
layer {
  name: "norm_177"
  type: "BatchNorm"
  bottom: "conv_177"
  top: "norm_177"
  batch_norm_param {
  }
}
layer {
  name: "relu_177"
  type: "ReLU"
  bottom: "norm_177"
  top: "relu_177"
}
layer {
  name: "conv_178"
  type: "Convolution"
  bottom: "relu_177"
  top: "conv_178"
  param {
    lr_mult: 1.0
    decay_mult: 1.0
  }
  param {
    lr_mult: 1.0
    decay_mult: 1.0
  }
  convolution_param {
    num_output: 256
    pad: 1
    kernel_size: 3
    stride: 1
    weight_filler {
      type: "gaussian"
      std: 0.0294627826661
    }
    bias_filler {
      type: "constant"
      value: 0.0
    }
  }
}
layer {
  name: "norm_178"
  type: "BatchNorm"
  bottom: "conv_178"
  top: "norm_178"
  batch_norm_param {
  }
}
layer {
  name: "elem_178"
  type: "Eltwise"
  bottom: "norm_178"
  bottom: "relu_176"
  top: "elem_178"
  eltwise_param {
    operation: SUM
  }
}
layer {
  name: "relu_178"
  type: "ReLU"
  bottom: "elem_178"
  top: "relu_178"
}
layer {
  name: "conv_179"
  type: "Convolution"
  bottom: "relu_178"
  top: "conv_179"
  param {
    lr_mult: 1.0
    decay_mult: 1.0
  }
  param {
    lr_mult: 1.0
    decay_mult: 1.0
  }
  convolution_param {
    num_output: 256
    pad: 1
    kernel_size: 3
    stride: 1
    weight_filler {
      type: "gaussian"
      std: 0.0294627826661
    }
    bias_filler {
      type: "constant"
      value: 0.0
    }
  }
}
layer {
  name: "norm_179"
  type: "BatchNorm"
  bottom: "conv_179"
  top: "norm_179"
  batch_norm_param {
  }
}
layer {
  name: "relu_179"
  type: "ReLU"
  bottom: "norm_179"
  top: "relu_179"
}
layer {
  name: "conv_180"
  type: "Convolution"
  bottom: "relu_179"
  top: "conv_180"
  param {
    lr_mult: 1.0
    decay_mult: 1.0
  }
  param {
    lr_mult: 1.0
    decay_mult: 1.0
  }
  convolution_param {
    num_output: 256
    pad: 1
    kernel_size: 3
    stride: 1
    weight_filler {
      type: "gaussian"
      std: 0.0294627826661
    }
    bias_filler {
      type: "constant"
      value: 0.0
    }
  }
}
layer {
  name: "norm_180"
  type: "BatchNorm"
  bottom: "conv_180"
  top: "norm_180"
  batch_norm_param {
  }
}
layer {
  name: "elem_180"
  type: "Eltwise"
  bottom: "norm_180"
  bottom: "relu_178"
  top: "elem_180"
  eltwise_param {
    operation: SUM
  }
}
layer {
  name: "relu_180"
  type: "ReLU"
  bottom: "elem_180"
  top: "relu_180"
}
layer {
  name: "conv_181"
  type: "Convolution"
  bottom: "relu_180"
  top: "conv_181"
  param {
    lr_mult: 1.0
    decay_mult: 1.0
  }
  param {
    lr_mult: 1.0
    decay_mult: 1.0
  }
  convolution_param {
    num_output: 256
    pad: 1
    kernel_size: 3
    stride: 1
    weight_filler {
      type: "gaussian"
      std: 0.0294627826661
    }
    bias_filler {
      type: "constant"
      value: 0.0
    }
  }
}
layer {
  name: "norm_181"
  type: "BatchNorm"
  bottom: "conv_181"
  top: "norm_181"
  batch_norm_param {
  }
}
layer {
  name: "relu_181"
  type: "ReLU"
  bottom: "norm_181"
  top: "relu_181"
}
layer {
  name: "conv_182"
  type: "Convolution"
  bottom: "relu_181"
  top: "conv_182"
  param {
    lr_mult: 1.0
    decay_mult: 1.0
  }
  param {
    lr_mult: 1.0
    decay_mult: 1.0
  }
  convolution_param {
    num_output: 256
    pad: 1
    kernel_size: 3
    stride: 1
    weight_filler {
      type: "gaussian"
      std: 0.0294627826661
    }
    bias_filler {
      type: "constant"
      value: 0.0
    }
  }
}
layer {
  name: "norm_182"
  type: "BatchNorm"
  bottom: "conv_182"
  top: "norm_182"
  batch_norm_param {
  }
}
layer {
  name: "elem_182"
  type: "Eltwise"
  bottom: "norm_182"
  bottom: "relu_180"
  top: "elem_182"
  eltwise_param {
    operation: SUM
  }
}
layer {
  name: "relu_182"
  type: "ReLU"
  bottom: "elem_182"
  top: "relu_182"
}
layer {
  name: "pool_183"
  type: "Pooling"
  bottom: "relu_182"
  top: "pool_183"
  pooling_param {
    pool: AVE
    kernel_size: 2
    stride: 2
  }
}
layer {
  name: "fc_183"
  type: "InnerProduct"
  bottom: "pool_183"
  top: "fc_183"
  param {
    lr_mult: 1.0
    decay_mult: 1.0
  }
  param {
    lr_mult: 1.0
    decay_mult: 1.0
  }
  inner_product_param {
    num_output: 10
    weight_filler {
      type: "gaussian"
      std: 0.00999999977648
    }
    bias_filler {
      type: "constant"
      value: 0.0
    }
  }
}
layer {
  name: "loss"
  type: "SoftmaxWithLoss"
  bottom: "fc_183"
  bottom: "label"
  top: "loss"
}
layer {
  name: "accuracy"
  type: "Accuracy"
  bottom: "fc_183"
  bottom: "label"
  top: "accuracy"
  include {
    phase: TEST
  }
}
